Generation: 1
Files already downloaded and verified
Files already downloaded and verified
----------------------------------------------------------------
        Layer (type)               Output Shape         Param #
================================================================
            Conv2d-1           [-1, 16, 34, 34]             448
       BatchNorm2d-2           [-1, 16, 34, 34]              32
              ReLU-3           [-1, 16, 34, 34]               0
       SkipConnect-4           [-1, 16, 34, 34]               0
         MaxPool2d-5           [-1, 16, 18, 18]               0
         MaxPool2d-6           [-1, 16, 10, 10]               0
            Conv2d-7           [-1, 29, 12, 12]           4,205
       BatchNorm2d-8           [-1, 29, 12, 12]              58
              ReLU-9           [-1, 29, 12, 12]               0
      SkipConnect-10           [-1, 29, 12, 12]               0
           Conv2d-11          [-1, 302, 14, 14]          79,124
      BatchNorm2d-12          [-1, 302, 14, 14]             604
             ReLU-13          [-1, 302, 14, 14]               0
      SkipConnect-14          [-1, 302, 14, 14]               0
           Conv2d-15           [-1, 28, 16, 16]          76,132
      BatchNorm2d-16           [-1, 28, 16, 16]              56
             ReLU-17           [-1, 28, 16, 16]               0
      SkipConnect-18           [-1, 28, 16, 16]               0
           Conv2d-19          [-1, 219, 18, 18]          55,407
      BatchNorm2d-20          [-1, 219, 18, 18]             438
             ReLU-21          [-1, 219, 18, 18]               0
      SkipConnect-22          [-1, 219, 18, 18]               0
        MaxPool2d-23          [-1, 219, 10, 10]               0
           Conv2d-24           [-1, 75, 12, 12]         147,900
      BatchNorm2d-25           [-1, 75, 12, 12]             150
             ReLU-26           [-1, 75, 12, 12]               0
      SkipConnect-27           [-1, 75, 12, 12]               0
           Conv2d-28          [-1, 333, 14, 14]         225,108
      BatchNorm2d-29          [-1, 333, 14, 14]             666
             ReLU-30          [-1, 333, 14, 14]               0
      SkipConnect-31          [-1, 333, 14, 14]               0
        AvgPool2d-32            [-1, 333, 8, 8]               0
        MaxPool2d-33            [-1, 333, 5, 5]               0
           Conv2d-34             [-1, 71, 7, 7]         212,858
      BatchNorm2d-35             [-1, 71, 7, 7]             142
             ReLU-36             [-1, 71, 7, 7]               0
      SkipConnect-37             [-1, 71, 7, 7]               0
           Conv2d-38            [-1, 150, 9, 9]          96,000
      BatchNorm2d-39            [-1, 150, 9, 9]             300
             ReLU-40            [-1, 150, 9, 9]               0
      SkipConnect-41            [-1, 150, 9, 9]               0
        AvgPool2d-42            [-1, 150, 5, 5]               0
           Conv2d-43             [-1, 93, 7, 7]         125,643
      BatchNorm2d-44             [-1, 93, 7, 7]             186
             ReLU-45             [-1, 93, 7, 7]               0
      SkipConnect-46             [-1, 93, 7, 7]               0
           Conv2d-47            [-1, 197, 9, 9]         165,086
      BatchNorm2d-48            [-1, 197, 9, 9]             394
             ReLU-49            [-1, 197, 9, 9]               0
      SkipConnect-50            [-1, 197, 9, 9]               0
           Conv2d-51          [-1, 276, 11, 11]         489,624
      BatchNorm2d-52          [-1, 276, 11, 11]             552
             ReLU-53          [-1, 276, 11, 11]               0
      SkipConnect-54          [-1, 276, 11, 11]               0
           Conv2d-55          [-1, 403, 13, 13]       1,001,455
      BatchNorm2d-56          [-1, 403, 13, 13]             806
             ReLU-57          [-1, 403, 13, 13]               0
      SkipConnect-58          [-1, 403, 13, 13]               0
        MaxPool2d-59            [-1, 403, 7, 7]               0
           Conv2d-60            [-1, 405, 9, 9]       1,469,340
      BatchNorm2d-61            [-1, 405, 9, 9]             810
             ReLU-62            [-1, 405, 9, 9]               0
      SkipConnect-63            [-1, 405, 9, 9]               0
           Conv2d-64          [-1, 483, 11, 11]       1,761,018
      BatchNorm2d-65          [-1, 483, 11, 11]             966
             ReLU-66          [-1, 483, 11, 11]               0
      SkipConnect-67          [-1, 483, 11, 11]               0
        AvgPool2d-68            [-1, 483, 6, 6]               0
        MaxPool2d-69            [-1, 483, 4, 4]               0
        AvgPool2d-70            [-1, 483, 3, 3]               0
        MaxPool2d-71            [-1, 483, 2, 2]               0
        AvgPool2d-72            [-1, 483, 2, 2]               0
           Conv2d-73            [-1, 415, 4, 4]       1,804,420
      BatchNorm2d-74            [-1, 415, 4, 4]             830
             ReLU-75            [-1, 415, 4, 4]               0
      SkipConnect-76            [-1, 415, 4, 4]               0
           Conv2d-77            [-1, 225, 6, 6]         840,600
      BatchNorm2d-78            [-1, 225, 6, 6]             450
             ReLU-79            [-1, 225, 6, 6]               0
      SkipConnect-80            [-1, 225, 6, 6]               0
        AvgPool2d-81            [-1, 225, 4, 4]               0
        AvgPool2d-82            [-1, 225, 3, 3]               0
           Conv2d-83            [-1, 179, 5, 5]         362,654
      BatchNorm2d-84            [-1, 179, 5, 5]             358
             ReLU-85            [-1, 179, 5, 5]               0
      SkipConnect-86            [-1, 179, 5, 5]               0
           Conv2d-87             [-1, 10, 7, 7]          16,120
      BatchNorm2d-88             [-1, 10, 7, 7]              20
             ReLU-89             [-1, 10, 7, 7]               0
      SkipConnect-90             [-1, 10, 7, 7]               0
        AvgPool2d-91             [-1, 10, 4, 4]               0
        AvgPool2d-92             [-1, 10, 3, 3]               0
        MaxPool2d-93             [-1, 10, 2, 2]               0
           Conv2d-94             [-1, 47, 4, 4]           4,277
      BatchNorm2d-95             [-1, 47, 4, 4]              94
             ReLU-96             [-1, 47, 4, 4]               0
      SkipConnect-97             [-1, 47, 4, 4]               0
           Conv2d-98            [-1, 285, 6, 6]         120,840
      BatchNorm2d-99            [-1, 285, 6, 6]             570
            ReLU-100            [-1, 285, 6, 6]               0
     SkipConnect-101            [-1, 285, 6, 6]               0
       MaxPool2d-102            [-1, 285, 4, 4]               0
          Conv2d-103            [-1, 429, 6, 6]       1,100,814
     BatchNorm2d-104            [-1, 429, 6, 6]             858
            ReLU-105            [-1, 429, 6, 6]               0
     SkipConnect-106            [-1, 429, 6, 6]               0
          Conv2d-107            [-1, 186, 8, 8]         718,332
     BatchNorm2d-108            [-1, 186, 8, 8]             372
            ReLU-109            [-1, 186, 8, 8]               0
     SkipConnect-110            [-1, 186, 8, 8]               0
       MaxPool2d-111            [-1, 186, 5, 5]               0
          Conv2d-112            [-1, 309, 7, 7]         517,575
     BatchNorm2d-113            [-1, 309, 7, 7]             618
            ReLU-114            [-1, 309, 7, 7]               0
     SkipConnect-115            [-1, 309, 7, 7]               0
          Conv2d-116            [-1, 297, 9, 9]         826,254
     BatchNorm2d-117            [-1, 297, 9, 9]             594
            ReLU-118            [-1, 297, 9, 9]               0
     SkipConnect-119            [-1, 297, 9, 9]               0
       MaxPool2d-120            [-1, 297, 5, 5]               0
================================================================
Total params: 12,232,158
Trainable params: 12,232,158
Non-trainable params: 0
----------------------------------------------------------------
Input size (MB): 0.01
Forward/backward pass size (MB): 18.21
Params size (MB): 46.66
Estimated Total Size (MB): 64.88
----------------------------------------------------------------
Epoch:  1
Epoch: 1 of 3	Acc: 21.875	Loss: 148.95
Epoch:  2
Epoch: 2 of 3	Acc: 28.125	Loss: 147.95
Epoch:  3
Epoch: 3 of 3	Acc: 21.875	Loss: 147.7
----------------------------------------------------------------
        Layer (type)               Output Shape         Param #
================================================================
            Conv2d-1           [-1, 16, 34, 34]             448
       BatchNorm2d-2           [-1, 16, 34, 34]              32
              ReLU-3           [-1, 16, 34, 34]               0
       SkipConnect-4           [-1, 16, 34, 34]               0
         AvgPool2d-5           [-1, 16, 18, 18]               0
         MaxPool2d-6           [-1, 16, 10, 10]               0
         AvgPool2d-7             [-1, 16, 6, 6]               0
            Conv2d-8            [-1, 284, 8, 8]          41,180
       BatchNorm2d-9            [-1, 284, 8, 8]             568
             ReLU-10            [-1, 284, 8, 8]               0
      SkipConnect-11            [-1, 284, 8, 8]               0
           Conv2d-12          [-1, 478, 10, 10]       1,222,246
      BatchNorm2d-13          [-1, 478, 10, 10]             956
             ReLU-14          [-1, 478, 10, 10]               0
      SkipConnect-15          [-1, 478, 10, 10]               0
        MaxPool2d-16            [-1, 478, 6, 6]               0
        AvgPool2d-17            [-1, 478, 4, 4]               0
           Conv2d-18            [-1, 216, 6, 6]         929,448
      BatchNorm2d-19            [-1, 216, 6, 6]             432
             ReLU-20            [-1, 216, 6, 6]               0
      SkipConnect-21            [-1, 216, 6, 6]               0
           Conv2d-22            [-1, 387, 8, 8]         752,715
      BatchNorm2d-23            [-1, 387, 8, 8]             774
             ReLU-24            [-1, 387, 8, 8]               0
      SkipConnect-25            [-1, 387, 8, 8]               0
           Conv2d-26          [-1, 155, 10, 10]         540,020
      BatchNorm2d-27          [-1, 155, 10, 10]             310
             ReLU-28          [-1, 155, 10, 10]               0
      SkipConnect-29          [-1, 155, 10, 10]               0
           Conv2d-30           [-1, 90, 12, 12]         125,640
      BatchNorm2d-31           [-1, 90, 12, 12]             180
             ReLU-32           [-1, 90, 12, 12]               0
      SkipConnect-33           [-1, 90, 12, 12]               0
           Conv2d-34          [-1, 241, 14, 14]         195,451
      BatchNorm2d-35          [-1, 241, 14, 14]             482
             ReLU-36          [-1, 241, 14, 14]               0
      SkipConnect-37          [-1, 241, 14, 14]               0
           Conv2d-38          [-1, 474, 16, 16]       1,028,580
      BatchNorm2d-39          [-1, 474, 16, 16]             948
             ReLU-40          [-1, 474, 16, 16]               0
      SkipConnect-41          [-1, 474, 16, 16]               0
           Conv2d-42          [-1, 324, 18, 18]       1,382,508
      BatchNorm2d-43          [-1, 324, 18, 18]             648
             ReLU-44          [-1, 324, 18, 18]               0
      SkipConnect-45          [-1, 324, 18, 18]               0
           Conv2d-46          [-1, 257, 20, 20]         749,669
      BatchNorm2d-47          [-1, 257, 20, 20]             514
             ReLU-48          [-1, 257, 20, 20]               0
      SkipConnect-49          [-1, 257, 20, 20]               0
           Conv2d-50          [-1, 203, 22, 22]         469,742
      BatchNorm2d-51          [-1, 203, 22, 22]             406
             ReLU-52          [-1, 203, 22, 22]               0
      SkipConnect-53          [-1, 203, 22, 22]               0
           Conv2d-54          [-1, 234, 24, 24]         427,752
      BatchNorm2d-55          [-1, 234, 24, 24]             468
             ReLU-56          [-1, 234, 24, 24]               0
      SkipConnect-57          [-1, 234, 24, 24]               0
        MaxPool2d-58          [-1, 234, 13, 13]               0
           Conv2d-59           [-1, 14, 15, 15]          29,498
      BatchNorm2d-60           [-1, 14, 15, 15]              28
             ReLU-61           [-1, 14, 15, 15]               0
      SkipConnect-62           [-1, 14, 15, 15]               0
           Conv2d-63          [-1, 439, 17, 17]          55,753
      BatchNorm2d-64          [-1, 439, 17, 17]             878
             ReLU-65          [-1, 439, 17, 17]               0
      SkipConnect-66          [-1, 439, 17, 17]               0
           Conv2d-67          [-1, 222, 19, 19]         877,344
      BatchNorm2d-68          [-1, 222, 19, 19]             444
             ReLU-69          [-1, 222, 19, 19]               0
      SkipConnect-70          [-1, 222, 19, 19]               0
           Conv2d-71          [-1, 259, 21, 21]         517,741
      BatchNorm2d-72          [-1, 259, 21, 21]             518
             ReLU-73          [-1, 259, 21, 21]               0
      SkipConnect-74          [-1, 259, 21, 21]               0
        AvgPool2d-75          [-1, 259, 11, 11]               0
        MaxPool2d-76            [-1, 259, 6, 6]               0
           Conv2d-77            [-1, 359, 8, 8]         837,188
      BatchNorm2d-78            [-1, 359, 8, 8]             718
             ReLU-79            [-1, 359, 8, 8]               0
      SkipConnect-80            [-1, 359, 8, 8]               0
           Conv2d-81          [-1, 285, 10, 10]         921,120
      BatchNorm2d-82          [-1, 285, 10, 10]             570
             ReLU-83          [-1, 285, 10, 10]               0
      SkipConnect-84          [-1, 285, 10, 10]               0
           Conv2d-85           [-1, 12, 12, 12]          30,792
      BatchNorm2d-86           [-1, 12, 12, 12]              24
             ReLU-87           [-1, 12, 12, 12]               0
      SkipConnect-88           [-1, 12, 12, 12]               0
           Conv2d-89           [-1, 36, 14, 14]           3,924
      BatchNorm2d-90           [-1, 36, 14, 14]              72
             ReLU-91           [-1, 36, 14, 14]               0
      SkipConnect-92           [-1, 36, 14, 14]               0
        AvgPool2d-93             [-1, 36, 8, 8]               0
        AvgPool2d-94             [-1, 36, 5, 5]               0
           Conv2d-95            [-1, 246, 7, 7]          79,950
      BatchNorm2d-96            [-1, 246, 7, 7]             492
             ReLU-97            [-1, 246, 7, 7]               0
      SkipConnect-98            [-1, 246, 7, 7]               0
           Conv2d-99            [-1, 317, 9, 9]         702,155
     BatchNorm2d-100            [-1, 317, 9, 9]             634
            ReLU-101            [-1, 317, 9, 9]               0
     SkipConnect-102            [-1, 317, 9, 9]               0
       MaxPool2d-103            [-1, 317, 5, 5]               0
       MaxPool2d-104            [-1, 317, 3, 3]               0
          Conv2d-105             [-1, 74, 5, 5]         211,196
     BatchNorm2d-106             [-1, 74, 5, 5]             148
            ReLU-107             [-1, 74, 5, 5]               0
     SkipConnect-108             [-1, 74, 5, 5]               0
          Conv2d-109            [-1, 170, 7, 7]         113,390
     BatchNorm2d-110            [-1, 170, 7, 7]             340
            ReLU-111            [-1, 170, 7, 7]               0
     SkipConnect-112            [-1, 170, 7, 7]               0
       MaxPool2d-113            [-1, 170, 4, 4]               0
       MaxPool2d-114            [-1, 170, 3, 3]               0
       AvgPool2d-115            [-1, 170, 2, 2]               0
          Conv2d-116            [-1, 256, 4, 4]         391,936
     BatchNorm2d-117            [-1, 256, 4, 4]             512
            ReLU-118            [-1, 256, 4, 4]               0
     SkipConnect-119            [-1, 256, 4, 4]               0
          Conv2d-120            [-1, 141, 6, 6]         325,005
     BatchNorm2d-121            [-1, 141, 6, 6]             282
            ReLU-122            [-1, 141, 6, 6]               0
     SkipConnect-123            [-1, 141, 6, 6]               0
       MaxPool2d-124            [-1, 141, 4, 4]               0
       AvgPool2d-125            [-1, 141, 3, 3]               0
          Conv2d-126            [-1, 367, 5, 5]         466,090
     BatchNorm2d-127            [-1, 367, 5, 5]             734
            ReLU-128            [-1, 367, 5, 5]               0
     SkipConnect-129            [-1, 367, 5, 5]               0
          Conv2d-130            [-1, 316, 7, 7]       1,044,064
     BatchNorm2d-131            [-1, 316, 7, 7]             632
            ReLU-132            [-1, 316, 7, 7]               0
     SkipConnect-133            [-1, 316, 7, 7]               0
       MaxPool2d-134            [-1, 316, 4, 4]               0
================================================================
Total params: 14,486,289
Trainable params: 14,486,289
Non-trainable params: 0
----------------------------------------------------------------
Input size (MB): 0.01
Forward/backward pass size (MB): 38.34
Params size (MB): 55.26
Estimated Total Size (MB): 93.61
----------------------------------------------------------------
Epoch:  1
Epoch: 1 of 3	Acc: 25.0	Loss: 149.89
Epoch:  2
Epoch: 2 of 3	Acc: 25.0	Loss: 148.48
Epoch:  3
Epoch: 3 of 3	Acc: 25.0	Loss: 147.76
----------------------------------------------------------------
        Layer (type)               Output Shape         Param #
================================================================
            Conv2d-1           [-1, 16, 34, 34]             448
       BatchNorm2d-2           [-1, 16, 34, 34]              32
              ReLU-3           [-1, 16, 34, 34]               0
       SkipConnect-4           [-1, 16, 34, 34]               0
         AvgPool2d-5           [-1, 16, 18, 18]               0
         AvgPool2d-6           [-1, 16, 10, 10]               0
         MaxPool2d-7             [-1, 16, 6, 6]               0
            Conv2d-8            [-1, 139, 8, 8]          20,155
       BatchNorm2d-9            [-1, 139, 8, 8]             278
             ReLU-10            [-1, 139, 8, 8]               0
      SkipConnect-11            [-1, 139, 8, 8]               0
           Conv2d-12           [-1, 22, 10, 10]          27,544
      BatchNorm2d-13           [-1, 22, 10, 10]              44
             ReLU-14           [-1, 22, 10, 10]               0
      SkipConnect-15           [-1, 22, 10, 10]               0
           Conv2d-16          [-1, 212, 12, 12]          42,188
      BatchNorm2d-17          [-1, 212, 12, 12]             424
             ReLU-18          [-1, 212, 12, 12]               0
      SkipConnect-19          [-1, 212, 12, 12]               0
           Conv2d-20          [-1, 212, 14, 14]         404,708
      BatchNorm2d-21          [-1, 212, 14, 14]             424
             ReLU-22          [-1, 212, 14, 14]               0
      SkipConnect-23          [-1, 212, 14, 14]               0
           Conv2d-24          [-1, 107, 16, 16]         204,263
      BatchNorm2d-25          [-1, 107, 16, 16]             214
             ReLU-26          [-1, 107, 16, 16]               0
      SkipConnect-27          [-1, 107, 16, 16]               0
           Conv2d-28           [-1, 54, 18, 18]          52,056
      BatchNorm2d-29           [-1, 54, 18, 18]             108
             ReLU-30           [-1, 54, 18, 18]               0
      SkipConnect-31           [-1, 54, 18, 18]               0
           Conv2d-32           [-1, 47, 20, 20]          22,889
      BatchNorm2d-33           [-1, 47, 20, 20]              94
             ReLU-34           [-1, 47, 20, 20]               0
      SkipConnect-35           [-1, 47, 20, 20]               0
           Conv2d-36           [-1, 81, 22, 22]          34,344
      BatchNorm2d-37           [-1, 81, 22, 22]             162
             ReLU-38           [-1, 81, 22, 22]               0
      SkipConnect-39           [-1, 81, 22, 22]               0
        MaxPool2d-40           [-1, 81, 12, 12]               0
        AvgPool2d-41             [-1, 81, 7, 7]               0
           Conv2d-42             [-1, 20, 9, 9]          14,600
      BatchNorm2d-43             [-1, 20, 9, 9]              40
             ReLU-44             [-1, 20, 9, 9]               0
      SkipConnect-45             [-1, 20, 9, 9]               0
           Conv2d-46          [-1, 456, 11, 11]          82,536
      BatchNorm2d-47          [-1, 456, 11, 11]             912
             ReLU-48          [-1, 456, 11, 11]               0
      SkipConnect-49          [-1, 456, 11, 11]               0
        AvgPool2d-50            [-1, 456, 6, 6]               0
           Conv2d-51             [-1, 67, 8, 8]         275,035
      BatchNorm2d-52             [-1, 67, 8, 8]             134
             ReLU-53             [-1, 67, 8, 8]               0
      SkipConnect-54             [-1, 67, 8, 8]               0
           Conv2d-55          [-1, 435, 10, 10]         262,740
      BatchNorm2d-56          [-1, 435, 10, 10]             870
             ReLU-57          [-1, 435, 10, 10]               0
      SkipConnect-58          [-1, 435, 10, 10]               0
           Conv2d-59          [-1, 460, 12, 12]       1,801,360
      BatchNorm2d-60          [-1, 460, 12, 12]             920
             ReLU-61          [-1, 460, 12, 12]               0
      SkipConnect-62          [-1, 460, 12, 12]               0
           Conv2d-63           [-1, 49, 14, 14]         202,909
      BatchNorm2d-64           [-1, 49, 14, 14]              98
             ReLU-65           [-1, 49, 14, 14]               0
      SkipConnect-66           [-1, 49, 14, 14]               0
        MaxPool2d-67             [-1, 49, 8, 8]               0
           Conv2d-68          [-1, 151, 10, 10]          66,742
      BatchNorm2d-69          [-1, 151, 10, 10]             302
             ReLU-70          [-1, 151, 10, 10]               0
      SkipConnect-71          [-1, 151, 10, 10]               0
           Conv2d-72          [-1, 127, 12, 12]         172,720
      BatchNorm2d-73          [-1, 127, 12, 12]             254
             ReLU-74          [-1, 127, 12, 12]               0
      SkipConnect-75          [-1, 127, 12, 12]               0
           Conv2d-76          [-1, 388, 14, 14]         443,872
      BatchNorm2d-77          [-1, 388, 14, 14]             776
             ReLU-78          [-1, 388, 14, 14]               0
      SkipConnect-79          [-1, 388, 14, 14]               0
           Conv2d-80           [-1, 20, 16, 16]          69,860
      BatchNorm2d-81           [-1, 20, 16, 16]              40
             ReLU-82           [-1, 20, 16, 16]               0
      SkipConnect-83           [-1, 20, 16, 16]               0
        AvgPool2d-84             [-1, 20, 9, 9]               0
           Conv2d-85          [-1, 277, 11, 11]          50,137
      BatchNorm2d-86          [-1, 277, 11, 11]             554
             ReLU-87          [-1, 277, 11, 11]               0
      SkipConnect-88          [-1, 277, 11, 11]               0
           Conv2d-89           [-1, 29, 13, 13]          72,326
      BatchNorm2d-90           [-1, 29, 13, 13]              58
             ReLU-91           [-1, 29, 13, 13]               0
      SkipConnect-92           [-1, 29, 13, 13]               0
           Conv2d-93          [-1, 280, 15, 15]          73,360
      BatchNorm2d-94          [-1, 280, 15, 15]             560
             ReLU-95          [-1, 280, 15, 15]               0
      SkipConnect-96          [-1, 280, 15, 15]               0
           Conv2d-97          [-1, 380, 17, 17]         957,980
      BatchNorm2d-98          [-1, 380, 17, 17]             760
             ReLU-99          [-1, 380, 17, 17]               0
     SkipConnect-100          [-1, 380, 17, 17]               0
          Conv2d-101          [-1, 299, 19, 19]       1,022,879
     BatchNorm2d-102          [-1, 299, 19, 19]             598
            ReLU-103          [-1, 299, 19, 19]               0
     SkipConnect-104          [-1, 299, 19, 19]               0
          Conv2d-105           [-1, 84, 21, 21]         226,128
     BatchNorm2d-106           [-1, 84, 21, 21]             168
            ReLU-107           [-1, 84, 21, 21]               0
     SkipConnect-108           [-1, 84, 21, 21]               0
       MaxPool2d-109           [-1, 84, 11, 11]               0
       MaxPool2d-110             [-1, 84, 6, 6]               0
       AvgPool2d-111             [-1, 84, 4, 4]               0
       MaxPool2d-112             [-1, 84, 3, 3]               0
          Conv2d-113            [-1, 314, 5, 5]         237,698
     BatchNorm2d-114            [-1, 314, 5, 5]             628
            ReLU-115            [-1, 314, 5, 5]               0
     SkipConnect-116            [-1, 314, 5, 5]               0
          Conv2d-117            [-1, 370, 7, 7]       1,045,990
     BatchNorm2d-118            [-1, 370, 7, 7]             740
            ReLU-119            [-1, 370, 7, 7]               0
     SkipConnect-120            [-1, 370, 7, 7]               0
       AvgPool2d-121            [-1, 370, 4, 4]               0
       MaxPool2d-122            [-1, 370, 3, 3]               0
       AvgPool2d-123            [-1, 370, 2, 2]               0
       MaxPool2d-124            [-1, 370, 2, 2]               0
          Conv2d-125             [-1, 65, 4, 4]         216,515
     BatchNorm2d-126             [-1, 65, 4, 4]             130
            ReLU-127             [-1, 65, 4, 4]               0
     SkipConnect-128             [-1, 65, 4, 4]               0
          Conv2d-129            [-1, 451, 6, 6]         264,286
     BatchNorm2d-130            [-1, 451, 6, 6]             902
            ReLU-131            [-1, 451, 6, 6]               0
     SkipConnect-132            [-1, 451, 6, 6]               0
          Conv2d-133            [-1, 271, 8, 8]       1,100,260
     BatchNorm2d-134            [-1, 271, 8, 8]             542
            ReLU-135            [-1, 271, 8, 8]               0
     SkipConnect-136            [-1, 271, 8, 8]               0
          Conv2d-137          [-1, 447, 10, 10]       1,090,680
     BatchNorm2d-138          [-1, 447, 10, 10]             894
            ReLU-139          [-1, 447, 10, 10]               0
     SkipConnect-140          [-1, 447, 10, 10]               0
          Conv2d-141          [-1, 340, 12, 12]       1,368,160
     BatchNorm2d-142          [-1, 340, 12, 12]             680
            ReLU-143          [-1, 340, 12, 12]               0
     SkipConnect-144          [-1, 340, 12, 12]               0
          Conv2d-145          [-1, 281, 14, 14]         860,141
     BatchNorm2d-146          [-1, 281, 14, 14]             562
            ReLU-147          [-1, 281, 14, 14]               0
     SkipConnect-148          [-1, 281, 14, 14]               0
================================================================
Total params: 12,801,411
Trainable params: 12,801,411
Non-trainable params: 0
----------------------------------------------------------------
Input size (MB): 0.01
Forward/backward pass size (MB): 33.05
Params size (MB): 48.83
Estimated Total Size (MB): 81.90
----------------------------------------------------------------
Epoch:  1
Epoch: 1 of 3	Acc: 25.0	Loss: 148.37
Epoch:  2
Epoch: 2 of 3	Acc: 25.0	Loss: 147.85
Epoch:  3
Epoch: 3 of 3	Acc: 26.5625	Loss: 147.64
----------------------------------------------------------------
        Layer (type)               Output Shape         Param #
================================================================
            Conv2d-1           [-1, 16, 34, 34]             448
       BatchNorm2d-2           [-1, 16, 34, 34]              32
              ReLU-3           [-1, 16, 34, 34]               0
       SkipConnect-4           [-1, 16, 34, 34]               0
         AvgPool2d-5           [-1, 16, 18, 18]               0
            Conv2d-6          [-1, 158, 20, 20]          22,910
       BatchNorm2d-7          [-1, 158, 20, 20]             316
              ReLU-8          [-1, 158, 20, 20]               0
       SkipConnect-9          [-1, 158, 20, 20]               0
           Conv2d-10          [-1, 449, 22, 22]         638,927
      BatchNorm2d-11          [-1, 449, 22, 22]             898
             ReLU-12          [-1, 449, 22, 22]               0
      SkipConnect-13          [-1, 449, 22, 22]               0
        AvgPool2d-14          [-1, 449, 12, 12]               0
        MaxPool2d-15            [-1, 449, 7, 7]               0
           Conv2d-16            [-1, 463, 9, 9]       1,871,446
      BatchNorm2d-17            [-1, 463, 9, 9]             926
             ReLU-18            [-1, 463, 9, 9]               0
      SkipConnect-19            [-1, 463, 9, 9]               0
           Conv2d-20          [-1, 477, 11, 11]       1,988,136
      BatchNorm2d-21          [-1, 477, 11, 11]             954
             ReLU-22          [-1, 477, 11, 11]               0
      SkipConnect-23          [-1, 477, 11, 11]               0
           Conv2d-24          [-1, 467, 13, 13]       2,005,298
      BatchNorm2d-25          [-1, 467, 13, 13]             934
             ReLU-26          [-1, 467, 13, 13]               0
      SkipConnect-27          [-1, 467, 13, 13]               0
           Conv2d-28          [-1, 152, 15, 15]         639,008
      BatchNorm2d-29          [-1, 152, 15, 15]             304
             ReLU-30          [-1, 152, 15, 15]               0
      SkipConnect-31          [-1, 152, 15, 15]               0
           Conv2d-32          [-1, 203, 17, 17]         277,907
      BatchNorm2d-33          [-1, 203, 17, 17]             406
             ReLU-34          [-1, 203, 17, 17]               0
      SkipConnect-35          [-1, 203, 17, 17]               0
           Conv2d-36          [-1, 442, 19, 19]         807,976
      BatchNorm2d-37          [-1, 442, 19, 19]             884
             ReLU-38          [-1, 442, 19, 19]               0
      SkipConnect-39          [-1, 442, 19, 19]               0
        MaxPool2d-40          [-1, 442, 10, 10]               0
           Conv2d-41          [-1, 159, 12, 12]         632,661
      BatchNorm2d-42          [-1, 159, 12, 12]             318
             ReLU-43          [-1, 159, 12, 12]               0
      SkipConnect-44          [-1, 159, 12, 12]               0
           Conv2d-45          [-1, 428, 14, 14]         612,896
      BatchNorm2d-46          [-1, 428, 14, 14]             856
             ReLU-47          [-1, 428, 14, 14]               0
      SkipConnect-48          [-1, 428, 14, 14]               0
           Conv2d-49          [-1, 135, 16, 16]         520,155
      BatchNorm2d-50          [-1, 135, 16, 16]             270
             ReLU-51          [-1, 135, 16, 16]               0
      SkipConnect-52          [-1, 135, 16, 16]               0
           Conv2d-53           [-1, 29, 18, 18]          35,264
      BatchNorm2d-54           [-1, 29, 18, 18]              58
             ReLU-55           [-1, 29, 18, 18]               0
      SkipConnect-56           [-1, 29, 18, 18]               0
        AvgPool2d-57           [-1, 29, 10, 10]               0
        MaxPool2d-58             [-1, 29, 6, 6]               0
           Conv2d-59             [-1, 57, 8, 8]          14,934
      BatchNorm2d-60             [-1, 57, 8, 8]             114
             ReLU-61             [-1, 57, 8, 8]               0
      SkipConnect-62             [-1, 57, 8, 8]               0
           Conv2d-63          [-1, 397, 10, 10]         204,058
      BatchNorm2d-64          [-1, 397, 10, 10]             794
             ReLU-65          [-1, 397, 10, 10]               0
      SkipConnect-66          [-1, 397, 10, 10]               0
           Conv2d-67          [-1, 211, 12, 12]         754,114
      BatchNorm2d-68          [-1, 211, 12, 12]             422
             ReLU-69          [-1, 211, 12, 12]               0
      SkipConnect-70          [-1, 211, 12, 12]               0
           Conv2d-71          [-1, 238, 14, 14]         452,200
      BatchNorm2d-72          [-1, 238, 14, 14]             476
             ReLU-73          [-1, 238, 14, 14]               0
      SkipConnect-74          [-1, 238, 14, 14]               0
           Conv2d-75          [-1, 257, 16, 16]         550,751
      BatchNorm2d-76          [-1, 257, 16, 16]             514
             ReLU-77          [-1, 257, 16, 16]               0
      SkipConnect-78          [-1, 257, 16, 16]               0
           Conv2d-79          [-1, 481, 18, 18]       1,113,034
      BatchNorm2d-80          [-1, 481, 18, 18]             962
             ReLU-81          [-1, 481, 18, 18]               0
      SkipConnect-82          [-1, 481, 18, 18]               0
           Conv2d-83          [-1, 479, 20, 20]       2,074,070
      BatchNorm2d-84          [-1, 479, 20, 20]             958
             ReLU-85          [-1, 479, 20, 20]               0
      SkipConnect-86          [-1, 479, 20, 20]               0
           Conv2d-87           [-1, 77, 22, 22]         332,024
      BatchNorm2d-88           [-1, 77, 22, 22]             154
             ReLU-89           [-1, 77, 22, 22]               0
      SkipConnect-90           [-1, 77, 22, 22]               0
        MaxPool2d-91           [-1, 77, 12, 12]               0
        AvgPool2d-92             [-1, 77, 7, 7]               0
           Conv2d-93            [-1, 380, 9, 9]         263,720
      BatchNorm2d-94            [-1, 380, 9, 9]             760
             ReLU-95            [-1, 380, 9, 9]               0
      SkipConnect-96            [-1, 380, 9, 9]               0
           Conv2d-97          [-1, 132, 11, 11]         451,572
      BatchNorm2d-98          [-1, 132, 11, 11]             264
             ReLU-99          [-1, 132, 11, 11]               0
     SkipConnect-100          [-1, 132, 11, 11]               0
          Conv2d-101          [-1, 247, 13, 13]         293,683
     BatchNorm2d-102          [-1, 247, 13, 13]             494
            ReLU-103          [-1, 247, 13, 13]               0
     SkipConnect-104          [-1, 247, 13, 13]               0
          Conv2d-105          [-1, 319, 15, 15]         709,456
     BatchNorm2d-106          [-1, 319, 15, 15]             638
            ReLU-107          [-1, 319, 15, 15]               0
     SkipConnect-108          [-1, 319, 15, 15]               0
       AvgPool2d-109            [-1, 319, 8, 8]               0
          Conv2d-110          [-1, 321, 10, 10]         921,912
     BatchNorm2d-111          [-1, 321, 10, 10]             642
            ReLU-112          [-1, 321, 10, 10]               0
     SkipConnect-113          [-1, 321, 10, 10]               0
          Conv2d-114            [-1, 4, 12, 12]          11,560
     BatchNorm2d-115            [-1, 4, 12, 12]               8
            ReLU-116            [-1, 4, 12, 12]               0
     SkipConnect-117            [-1, 4, 12, 12]               0
          Conv2d-118          [-1, 320, 14, 14]          11,840
     BatchNorm2d-119          [-1, 320, 14, 14]             640
            ReLU-120          [-1, 320, 14, 14]               0
     SkipConnect-121          [-1, 320, 14, 14]               0
          Conv2d-122           [-1, 75, 16, 16]         216,075
     BatchNorm2d-123           [-1, 75, 16, 16]             150
            ReLU-124           [-1, 75, 16, 16]               0
     SkipConnect-125           [-1, 75, 16, 16]               0
       MaxPool2d-126             [-1, 75, 9, 9]               0
       MaxPool2d-127             [-1, 75, 5, 5]               0
          Conv2d-128            [-1, 156, 7, 7]         105,456
     BatchNorm2d-129            [-1, 156, 7, 7]             312
            ReLU-130            [-1, 156, 7, 7]               0
     SkipConnect-131            [-1, 156, 7, 7]               0
          Conv2d-132            [-1, 391, 9, 9]         549,355
     BatchNorm2d-133            [-1, 391, 9, 9]             782
            ReLU-134            [-1, 391, 9, 9]               0
     SkipConnect-135            [-1, 391, 9, 9]               0
          Conv2d-136          [-1, 246, 11, 11]         865,920
     BatchNorm2d-137          [-1, 246, 11, 11]             492
            ReLU-138          [-1, 246, 11, 11]               0
     SkipConnect-139          [-1, 246, 11, 11]               0
          Conv2d-140           [-1, 17, 13, 13]          37,655
     BatchNorm2d-141           [-1, 17, 13, 13]              34
            ReLU-142           [-1, 17, 13, 13]               0
     SkipConnect-143           [-1, 17, 13, 13]               0
       AvgPool2d-144             [-1, 17, 7, 7]               0
          Conv2d-145             [-1, 53, 9, 9]           8,162
     BatchNorm2d-146             [-1, 53, 9, 9]             106
            ReLU-147             [-1, 53, 9, 9]               0
     SkipConnect-148             [-1, 53, 9, 9]               0
          Conv2d-149          [-1, 460, 11, 11]         219,880
     BatchNorm2d-150          [-1, 460, 11, 11]             920
            ReLU-151          [-1, 460, 11, 11]               0
     SkipConnect-152          [-1, 460, 11, 11]               0
          Conv2d-153          [-1, 145, 13, 13]         600,445
     BatchNorm2d-154          [-1, 145, 13, 13]             290
            ReLU-155          [-1, 145, 13, 13]               0
     SkipConnect-156          [-1, 145, 13, 13]               0
          Conv2d-157          [-1, 122, 15, 15]         159,332
     BatchNorm2d-158          [-1, 122, 15, 15]             244
            ReLU-159          [-1, 122, 15, 15]               0
     SkipConnect-160          [-1, 122, 15, 15]               0
          Conv2d-161          [-1, 473, 17, 17]         519,827
     BatchNorm2d-162          [-1, 473, 17, 17]             946
            ReLU-163          [-1, 473, 17, 17]               0
     SkipConnect-164          [-1, 473, 17, 17]               0
          Conv2d-165          [-1, 324, 19, 19]       1,379,592
     BatchNorm2d-166          [-1, 324, 19, 19]             648
            ReLU-167          [-1, 324, 19, 19]               0
     SkipConnect-168          [-1, 324, 19, 19]               0
          Conv2d-169           [-1, 18, 21, 21]          52,506
     BatchNorm2d-170           [-1, 18, 21, 21]              36
            ReLU-171           [-1, 18, 21, 21]               0
     SkipConnect-172           [-1, 18, 21, 21]               0
          Conv2d-173          [-1, 503, 23, 23]          81,989
     BatchNorm2d-174          [-1, 503, 23, 23]           1,006
            ReLU-175          [-1, 503, 23, 23]               0
     SkipConnect-176          [-1, 503, 23, 23]               0
================================================================
Total params: 23,029,116
Trainable params: 23,029,116
Non-trainable params: 0
----------------------------------------------------------------
Input size (MB): 0.01
Forward/backward pass size (MB): 75.67
Params size (MB): 87.85
Estimated Total Size (MB): 163.53
----------------------------------------------------------------
Epoch:  1
Epoch: 1 of 3	Acc: 25.0	Loss: 148.84
Epoch:  2
Epoch: 2 of 3	Acc: 26.5625	Loss: 148.29
Epoch:  3
Epoch: 3 of 3	Acc: 25.0	Loss: 148.15
----------------------------------------------------------------
        Layer (type)               Output Shape         Param #
================================================================
            Conv2d-1           [-1, 16, 34, 34]             448
       BatchNorm2d-2           [-1, 16, 34, 34]              32
              ReLU-3           [-1, 16, 34, 34]               0
       SkipConnect-4           [-1, 16, 34, 34]               0
         AvgPool2d-5           [-1, 16, 18, 18]               0
         AvgPool2d-6           [-1, 16, 10, 10]               0
            Conv2d-7          [-1, 317, 12, 12]          45,965
       BatchNorm2d-8          [-1, 317, 12, 12]             634
              ReLU-9          [-1, 317, 12, 12]               0
      SkipConnect-10          [-1, 317, 12, 12]               0
           Conv2d-11          [-1, 172, 14, 14]         490,888
      BatchNorm2d-12          [-1, 172, 14, 14]             344
             ReLU-13          [-1, 172, 14, 14]               0
      SkipConnect-14          [-1, 172, 14, 14]               0
           Conv2d-15          [-1, 178, 16, 16]         275,722
      BatchNorm2d-16          [-1, 178, 16, 16]             356
             ReLU-17          [-1, 178, 16, 16]               0
      SkipConnect-18          [-1, 178, 16, 16]               0
           Conv2d-19          [-1, 163, 18, 18]         261,289
      BatchNorm2d-20          [-1, 163, 18, 18]             326
             ReLU-21          [-1, 163, 18, 18]               0
      SkipConnect-22          [-1, 163, 18, 18]               0
           Conv2d-23          [-1, 272, 20, 20]         399,296
      BatchNorm2d-24          [-1, 272, 20, 20]             544
             ReLU-25          [-1, 272, 20, 20]               0
      SkipConnect-26          [-1, 272, 20, 20]               0
           Conv2d-27          [-1, 378, 22, 22]         925,722
      BatchNorm2d-28          [-1, 378, 22, 22]             756
             ReLU-29          [-1, 378, 22, 22]               0
      SkipConnect-30          [-1, 378, 22, 22]               0
           Conv2d-31           [-1, 80, 24, 24]         272,240
      BatchNorm2d-32           [-1, 80, 24, 24]             160
             ReLU-33           [-1, 80, 24, 24]               0
      SkipConnect-34           [-1, 80, 24, 24]               0
           Conv2d-35          [-1, 100, 26, 26]          72,100
      BatchNorm2d-36          [-1, 100, 26, 26]             200
             ReLU-37          [-1, 100, 26, 26]               0
      SkipConnect-38          [-1, 100, 26, 26]               0
        AvgPool2d-39          [-1, 100, 14, 14]               0
        AvgPool2d-40            [-1, 100, 8, 8]               0
           Conv2d-41          [-1, 459, 10, 10]         413,559
      BatchNorm2d-42          [-1, 459, 10, 10]             918
             ReLU-43          [-1, 459, 10, 10]               0
      SkipConnect-44          [-1, 459, 10, 10]               0
           Conv2d-45          [-1, 184, 12, 12]         760,288
      BatchNorm2d-46          [-1, 184, 12, 12]             368
             ReLU-47          [-1, 184, 12, 12]               0
      SkipConnect-48          [-1, 184, 12, 12]               0
           Conv2d-49          [-1, 202, 14, 14]         334,714
      BatchNorm2d-50          [-1, 202, 14, 14]             404
             ReLU-51          [-1, 202, 14, 14]               0
      SkipConnect-52          [-1, 202, 14, 14]               0
           Conv2d-53            [-1, 9, 16, 16]          16,371
      BatchNorm2d-54            [-1, 9, 16, 16]              18
             ReLU-55            [-1, 9, 16, 16]               0
      SkipConnect-56            [-1, 9, 16, 16]               0
        MaxPool2d-57              [-1, 9, 9, 9]               0
        AvgPool2d-58              [-1, 9, 5, 5]               0
           Conv2d-59            [-1, 328, 7, 7]          26,896
      BatchNorm2d-60            [-1, 328, 7, 7]             656
             ReLU-61            [-1, 328, 7, 7]               0
      SkipConnect-62            [-1, 328, 7, 7]               0
           Conv2d-63            [-1, 235, 9, 9]         693,955
      BatchNorm2d-64            [-1, 235, 9, 9]             470
             ReLU-65            [-1, 235, 9, 9]               0
      SkipConnect-66            [-1, 235, 9, 9]               0
           Conv2d-67          [-1, 129, 11, 11]         272,964
      BatchNorm2d-68          [-1, 129, 11, 11]             258
             ReLU-69          [-1, 129, 11, 11]               0
      SkipConnect-70          [-1, 129, 11, 11]               0
           Conv2d-71          [-1, 179, 13, 13]         207,998
      BatchNorm2d-72          [-1, 179, 13, 13]             358
             ReLU-73          [-1, 179, 13, 13]               0
      SkipConnect-74          [-1, 179, 13, 13]               0
        MaxPool2d-75            [-1, 179, 7, 7]               0
           Conv2d-76            [-1, 462, 9, 9]         744,744
      BatchNorm2d-77            [-1, 462, 9, 9]             924
             ReLU-78            [-1, 462, 9, 9]               0
      SkipConnect-79            [-1, 462, 9, 9]               0
           Conv2d-80          [-1, 165, 11, 11]         686,235
      BatchNorm2d-81          [-1, 165, 11, 11]             330
             ReLU-82          [-1, 165, 11, 11]               0
      SkipConnect-83          [-1, 165, 11, 11]               0
        MaxPool2d-84            [-1, 165, 6, 6]               0
           Conv2d-85            [-1, 148, 8, 8]         219,928
      BatchNorm2d-86            [-1, 148, 8, 8]             296
             ReLU-87            [-1, 148, 8, 8]               0
      SkipConnect-88            [-1, 148, 8, 8]               0
           Conv2d-89           [-1, 97, 10, 10]         129,301
      BatchNorm2d-90           [-1, 97, 10, 10]             194
             ReLU-91           [-1, 97, 10, 10]               0
      SkipConnect-92           [-1, 97, 10, 10]               0
           Conv2d-93          [-1, 344, 12, 12]         300,656
      BatchNorm2d-94          [-1, 344, 12, 12]             688
             ReLU-95          [-1, 344, 12, 12]               0
      SkipConnect-96          [-1, 344, 12, 12]               0
           Conv2d-97          [-1, 401, 14, 14]       1,241,897
      BatchNorm2d-98          [-1, 401, 14, 14]             802
             ReLU-99          [-1, 401, 14, 14]               0
     SkipConnect-100          [-1, 401, 14, 14]               0
       AvgPool2d-101            [-1, 401, 8, 8]               0
          Conv2d-102           [-1, 56, 10, 10]         202,160
     BatchNorm2d-103           [-1, 56, 10, 10]             112
            ReLU-104           [-1, 56, 10, 10]               0
     SkipConnect-105           [-1, 56, 10, 10]               0
          Conv2d-106          [-1, 442, 12, 12]         223,210
     BatchNorm2d-107          [-1, 442, 12, 12]             884
            ReLU-108          [-1, 442, 12, 12]               0
     SkipConnect-109          [-1, 442, 12, 12]               0
          Conv2d-110          [-1, 323, 14, 14]       1,285,217
     BatchNorm2d-111          [-1, 323, 14, 14]             646
            ReLU-112          [-1, 323, 14, 14]               0
     SkipConnect-113          [-1, 323, 14, 14]               0
          Conv2d-114          [-1, 398, 16, 16]       1,157,384
     BatchNorm2d-115          [-1, 398, 16, 16]             796
            ReLU-116          [-1, 398, 16, 16]               0
     SkipConnect-117          [-1, 398, 16, 16]               0
       MaxPool2d-118            [-1, 398, 9, 9]               0
          Conv2d-119          [-1, 389, 11, 11]       1,393,787
     BatchNorm2d-120          [-1, 389, 11, 11]             778
            ReLU-121          [-1, 389, 11, 11]               0
     SkipConnect-122          [-1, 389, 11, 11]               0
          Conv2d-123          [-1, 160, 13, 13]         560,320
     BatchNorm2d-124          [-1, 160, 13, 13]             320
            ReLU-125          [-1, 160, 13, 13]               0
     SkipConnect-126          [-1, 160, 13, 13]               0
       MaxPool2d-127            [-1, 160, 7, 7]               0
          Conv2d-128             [-1, 54, 9, 9]          77,814
     BatchNorm2d-129             [-1, 54, 9, 9]             108
            ReLU-130             [-1, 54, 9, 9]               0
     SkipConnect-131             [-1, 54, 9, 9]               0
          Conv2d-132          [-1, 468, 11, 11]         227,916
     BatchNorm2d-133          [-1, 468, 11, 11]             936
            ReLU-134          [-1, 468, 11, 11]               0
     SkipConnect-135          [-1, 468, 11, 11]               0
          Conv2d-136          [-1, 250, 13, 13]       1,053,250
     BatchNorm2d-137          [-1, 250, 13, 13]             500
            ReLU-138          [-1, 250, 13, 13]               0
     SkipConnect-139          [-1, 250, 13, 13]               0
          Conv2d-140           [-1, 25, 15, 15]          56,275
     BatchNorm2d-141           [-1, 25, 15, 15]              50
            ReLU-142           [-1, 25, 15, 15]               0
     SkipConnect-143           [-1, 25, 15, 15]               0
          Conv2d-144          [-1, 388, 17, 17]          87,688
     BatchNorm2d-145          [-1, 388, 17, 17]             776
            ReLU-146          [-1, 388, 17, 17]               0
     SkipConnect-147          [-1, 388, 17, 17]               0
          Conv2d-148          [-1, 331, 19, 19]       1,156,183
     BatchNorm2d-149          [-1, 331, 19, 19]             662
            ReLU-150          [-1, 331, 19, 19]               0
     SkipConnect-151          [-1, 331, 19, 19]               0
       AvgPool2d-152          [-1, 331, 10, 10]               0
          Conv2d-153          [-1, 422, 12, 12]       1,257,560
     BatchNorm2d-154          [-1, 422, 12, 12]             844
            ReLU-155          [-1, 422, 12, 12]               0
     SkipConnect-156          [-1, 422, 12, 12]               0
          Conv2d-157          [-1, 472, 14, 14]       1,793,128
     BatchNorm2d-158          [-1, 472, 14, 14]             944
            ReLU-159          [-1, 472, 14, 14]               0
     SkipConnect-160          [-1, 472, 14, 14]               0
          Conv2d-161           [-1, 50, 16, 16]         212,450
     BatchNorm2d-162           [-1, 50, 16, 16]             100
            ReLU-163           [-1, 50, 16, 16]               0
     SkipConnect-164           [-1, 50, 16, 16]               0
          Conv2d-165          [-1, 399, 18, 18]         179,949
     BatchNorm2d-166          [-1, 399, 18, 18]             798
            ReLU-167          [-1, 399, 18, 18]               0
     SkipConnect-168          [-1, 399, 18, 18]               0
       MaxPool2d-169          [-1, 399, 10, 10]               0
================================================================
Total params: 19,736,757
Trainable params: 19,736,757
Non-trainable params: 0
----------------------------------------------------------------
Input size (MB): 0.01
Forward/backward pass size (MB): 60.82
Params size (MB): 75.29
Estimated Total Size (MB): 136.12
----------------------------------------------------------------
Epoch:  1
Epoch: 1 of 3	Acc: 23.4375	Loss: 149.08
Epoch:  2
Epoch: 2 of 3	Acc: 21.875	Loss: 148.62
Epoch:  3
Epoch: 3 of 3	Acc: 25.0	Loss: 148.39
----------------------------------------------------------------
        Layer (type)               Output Shape         Param #
================================================================
            Conv2d-1           [-1, 16, 34, 34]             448
       BatchNorm2d-2           [-1, 16, 34, 34]              32
              ReLU-3           [-1, 16, 34, 34]               0
       SkipConnect-4           [-1, 16, 34, 34]               0
            Conv2d-5          [-1, 449, 36, 36]          65,105
       BatchNorm2d-6          [-1, 449, 36, 36]             898
              ReLU-7          [-1, 449, 36, 36]               0
       SkipConnect-8          [-1, 449, 36, 36]               0
            Conv2d-9          [-1, 396, 38, 38]       1,600,632
      BatchNorm2d-10          [-1, 396, 38, 38]             792
             ReLU-11          [-1, 396, 38, 38]               0
      SkipConnect-12          [-1, 396, 38, 38]               0
        AvgPool2d-13          [-1, 396, 20, 20]               0
        AvgPool2d-14          [-1, 396, 11, 11]               0
        AvgPool2d-15            [-1, 396, 6, 6]               0
        MaxPool2d-16            [-1, 396, 4, 4]               0
        AvgPool2d-17            [-1, 396, 3, 3]               0
        MaxPool2d-18            [-1, 396, 2, 2]               0
        AvgPool2d-19            [-1, 396, 2, 2]               0
        AvgPool2d-20            [-1, 396, 2, 2]               0
        AvgPool2d-21            [-1, 396, 2, 2]               0
           Conv2d-22              [-1, 4, 4, 4]          14,260
      BatchNorm2d-23              [-1, 4, 4, 4]               8
             ReLU-24              [-1, 4, 4, 4]               0
      SkipConnect-25              [-1, 4, 4, 4]               0
           Conv2d-26            [-1, 144, 6, 6]           5,328
      BatchNorm2d-27            [-1, 144, 6, 6]             288
             ReLU-28            [-1, 144, 6, 6]               0
      SkipConnect-29            [-1, 144, 6, 6]               0
           Conv2d-30             [-1, 69, 8, 8]          89,493
      BatchNorm2d-31             [-1, 69, 8, 8]             138
             ReLU-32             [-1, 69, 8, 8]               0
      SkipConnect-33             [-1, 69, 8, 8]               0
           Conv2d-34          [-1, 198, 10, 10]         123,156
      BatchNorm2d-35          [-1, 198, 10, 10]             396
             ReLU-36          [-1, 198, 10, 10]               0
      SkipConnect-37          [-1, 198, 10, 10]               0
           Conv2d-38          [-1, 245, 12, 12]         436,835
      BatchNorm2d-39          [-1, 245, 12, 12]             490
             ReLU-40          [-1, 245, 12, 12]               0
      SkipConnect-41          [-1, 245, 12, 12]               0
           Conv2d-42          [-1, 341, 14, 14]         752,246
      BatchNorm2d-43          [-1, 341, 14, 14]             682
             ReLU-44          [-1, 341, 14, 14]               0
      SkipConnect-45          [-1, 341, 14, 14]               0
        MaxPool2d-46            [-1, 341, 8, 8]               0
        AvgPool2d-47            [-1, 341, 5, 5]               0
           Conv2d-48            [-1, 439, 7, 7]       1,347,730
      BatchNorm2d-49            [-1, 439, 7, 7]             878
             ReLU-50            [-1, 439, 7, 7]               0
      SkipConnect-51            [-1, 439, 7, 7]               0
           Conv2d-52            [-1, 267, 9, 9]       1,055,184
      BatchNorm2d-53            [-1, 267, 9, 9]             534
             ReLU-54            [-1, 267, 9, 9]               0
      SkipConnect-55            [-1, 267, 9, 9]               0
           Conv2d-56          [-1, 458, 11, 11]       1,101,032
      BatchNorm2d-57          [-1, 458, 11, 11]             916
             ReLU-58          [-1, 458, 11, 11]               0
      SkipConnect-59          [-1, 458, 11, 11]               0
           Conv2d-60          [-1, 133, 13, 13]         548,359
      BatchNorm2d-61          [-1, 133, 13, 13]             266
             ReLU-62          [-1, 133, 13, 13]               0
      SkipConnect-63          [-1, 133, 13, 13]               0
        MaxPool2d-64            [-1, 133, 7, 7]               0
        AvgPool2d-65            [-1, 133, 4, 4]               0
        MaxPool2d-66            [-1, 133, 3, 3]               0
        AvgPool2d-67            [-1, 133, 2, 2]               0
        AvgPool2d-68            [-1, 133, 2, 2]               0
           Conv2d-69            [-1, 301, 4, 4]         360,598
      BatchNorm2d-70            [-1, 301, 4, 4]             602
             ReLU-71            [-1, 301, 4, 4]               0
      SkipConnect-72            [-1, 301, 4, 4]               0
           Conv2d-73             [-1, 29, 6, 6]          78,590
      BatchNorm2d-74             [-1, 29, 6, 6]              58
             ReLU-75             [-1, 29, 6, 6]               0
      SkipConnect-76             [-1, 29, 6, 6]               0
        AvgPool2d-77             [-1, 29, 4, 4]               0
           Conv2d-78            [-1, 215, 6, 6]          56,330
      BatchNorm2d-79            [-1, 215, 6, 6]             430
             ReLU-80            [-1, 215, 6, 6]               0
      SkipConnect-81            [-1, 215, 6, 6]               0
           Conv2d-82             [-1, 84, 8, 8]         162,624
      BatchNorm2d-83             [-1, 84, 8, 8]             168
             ReLU-84             [-1, 84, 8, 8]               0
      SkipConnect-85             [-1, 84, 8, 8]               0
           Conv2d-86          [-1, 193, 10, 10]         146,101
      BatchNorm2d-87          [-1, 193, 10, 10]             386
             ReLU-88          [-1, 193, 10, 10]               0
      SkipConnect-89          [-1, 193, 10, 10]               0
           Conv2d-90          [-1, 253, 12, 12]         439,714
      BatchNorm2d-91          [-1, 253, 12, 12]             506
             ReLU-92          [-1, 253, 12, 12]               0
      SkipConnect-93          [-1, 253, 12, 12]               0
           Conv2d-94          [-1, 433, 14, 14]         986,374
      BatchNorm2d-95          [-1, 433, 14, 14]             866
             ReLU-96          [-1, 433, 14, 14]               0
      SkipConnect-97          [-1, 433, 14, 14]               0
           Conv2d-98          [-1, 237, 16, 16]         923,826
      BatchNorm2d-99          [-1, 237, 16, 16]             474
            ReLU-100          [-1, 237, 16, 16]               0
     SkipConnect-101          [-1, 237, 16, 16]               0
       MaxPool2d-102            [-1, 237, 9, 9]               0
          Conv2d-103           [-1, 97, 11, 11]         206,998
     BatchNorm2d-104           [-1, 97, 11, 11]             194
            ReLU-105           [-1, 97, 11, 11]               0
     SkipConnect-106           [-1, 97, 11, 11]               0
          Conv2d-107          [-1, 415, 13, 13]         362,710
     BatchNorm2d-108          [-1, 415, 13, 13]             830
            ReLU-109          [-1, 415, 13, 13]               0
     SkipConnect-110          [-1, 415, 13, 13]               0
       MaxPool2d-111            [-1, 415, 7, 7]               0
       MaxPool2d-112            [-1, 415, 4, 4]               0
       AvgPool2d-113            [-1, 415, 3, 3]               0
================================================================
Total params: 10,874,505
Trainable params: 10,874,505
Non-trainable params: 0
----------------------------------------------------------------
Input size (MB): 0.01
Forward/backward pass size (MB): 55.21
Params size (MB): 41.48
Estimated Total Size (MB): 96.70
----------------------------------------------------------------
Epoch:  1
Epoch: 1 of 3	Acc: 25.0	Loss: 147.76
Epoch:  2
Epoch: 2 of 3	Acc: 26.5625	Loss: 147.58
Epoch:  3
Epoch: 3 of 3	Acc: 28.125	Loss: 147.51
----------------------------------------------------------------
        Layer (type)               Output Shape         Param #
================================================================
            Conv2d-1           [-1, 16, 34, 34]             448
       BatchNorm2d-2           [-1, 16, 34, 34]              32
              ReLU-3           [-1, 16, 34, 34]               0
       SkipConnect-4           [-1, 16, 34, 34]               0
         MaxPool2d-5           [-1, 16, 18, 18]               0
            Conv2d-6          [-1, 358, 20, 20]          51,910
       BatchNorm2d-7          [-1, 358, 20, 20]             716
              ReLU-8          [-1, 358, 20, 20]               0
       SkipConnect-9          [-1, 358, 20, 20]               0
           Conv2d-10          [-1, 494, 22, 22]       1,592,162
      BatchNorm2d-11          [-1, 494, 22, 22]             988
             ReLU-12          [-1, 494, 22, 22]               0
      SkipConnect-13          [-1, 494, 22, 22]               0
        MaxPool2d-14          [-1, 494, 12, 12]               0
           Conv2d-15          [-1, 214, 14, 14]         951,658
      BatchNorm2d-16          [-1, 214, 14, 14]             428
             ReLU-17          [-1, 214, 14, 14]               0
      SkipConnect-18          [-1, 214, 14, 14]               0
           Conv2d-19          [-1, 252, 16, 16]         485,604
      BatchNorm2d-20          [-1, 252, 16, 16]             504
             ReLU-21          [-1, 252, 16, 16]               0
      SkipConnect-22          [-1, 252, 16, 16]               0
           Conv2d-23          [-1, 298, 18, 18]         676,162
      BatchNorm2d-24          [-1, 298, 18, 18]             596
             ReLU-25          [-1, 298, 18, 18]               0
      SkipConnect-26          [-1, 298, 18, 18]               0
           Conv2d-27           [-1, 19, 20, 20]          50,977
      BatchNorm2d-28           [-1, 19, 20, 20]              38
             ReLU-29           [-1, 19, 20, 20]               0
      SkipConnect-30           [-1, 19, 20, 20]               0
        MaxPool2d-31           [-1, 19, 11, 11]               0
        AvgPool2d-32             [-1, 19, 6, 6]               0
           Conv2d-33            [-1, 321, 8, 8]          55,212
      BatchNorm2d-34            [-1, 321, 8, 8]             642
             ReLU-35            [-1, 321, 8, 8]               0
      SkipConnect-36            [-1, 321, 8, 8]               0
           Conv2d-37          [-1, 117, 10, 10]         338,130
      BatchNorm2d-38          [-1, 117, 10, 10]             234
             ReLU-39          [-1, 117, 10, 10]               0
      SkipConnect-40          [-1, 117, 10, 10]               0
           Conv2d-41          [-1, 275, 12, 12]         289,850
      BatchNorm2d-42          [-1, 275, 12, 12]             550
             ReLU-43          [-1, 275, 12, 12]               0
      SkipConnect-44          [-1, 275, 12, 12]               0
           Conv2d-45          [-1, 451, 14, 14]       1,116,676
      BatchNorm2d-46          [-1, 451, 14, 14]             902
             ReLU-47          [-1, 451, 14, 14]               0
      SkipConnect-48          [-1, 451, 14, 14]               0
        MaxPool2d-49            [-1, 451, 8, 8]               0
           Conv2d-50          [-1, 251, 10, 10]       1,019,060
      BatchNorm2d-51          [-1, 251, 10, 10]             502
             ReLU-52          [-1, 251, 10, 10]               0
      SkipConnect-53          [-1, 251, 10, 10]               0
           Conv2d-54          [-1, 366, 12, 12]         827,160
      BatchNorm2d-55          [-1, 366, 12, 12]             732
             ReLU-56          [-1, 366, 12, 12]               0
      SkipConnect-57          [-1, 366, 12, 12]               0
           Conv2d-58            [-1, 2, 14, 14]           6,590
      BatchNorm2d-59            [-1, 2, 14, 14]               4
             ReLU-60            [-1, 2, 14, 14]               0
      SkipConnect-61            [-1, 2, 14, 14]               0
           Conv2d-62          [-1, 374, 16, 16]           7,106
      BatchNorm2d-63          [-1, 374, 16, 16]             748
             ReLU-64          [-1, 374, 16, 16]               0
      SkipConnect-65          [-1, 374, 16, 16]               0
        AvgPool2d-66            [-1, 374, 9, 9]               0
           Conv2d-67            [-1, 8, 11, 11]          26,936
      BatchNorm2d-68            [-1, 8, 11, 11]              16
             ReLU-69            [-1, 8, 11, 11]               0
      SkipConnect-70            [-1, 8, 11, 11]               0
           Conv2d-71          [-1, 455, 13, 13]          33,215
      BatchNorm2d-72          [-1, 455, 13, 13]             910
             ReLU-73          [-1, 455, 13, 13]               0
      SkipConnect-74          [-1, 455, 13, 13]               0
           Conv2d-75          [-1, 477, 15, 15]       1,953,792
      BatchNorm2d-76          [-1, 477, 15, 15]             954
             ReLU-77          [-1, 477, 15, 15]               0
      SkipConnect-78          [-1, 477, 15, 15]               0
           Conv2d-79          [-1, 314, 17, 17]       1,348,316
      BatchNorm2d-80          [-1, 314, 17, 17]             628
             ReLU-81          [-1, 314, 17, 17]               0
      SkipConnect-82          [-1, 314, 17, 17]               0
           Conv2d-83           [-1, 43, 19, 19]         121,561
      BatchNorm2d-84           [-1, 43, 19, 19]              86
             ReLU-85           [-1, 43, 19, 19]               0
      SkipConnect-86           [-1, 43, 19, 19]               0
           Conv2d-87          [-1, 486, 21, 21]         188,568
      BatchNorm2d-88          [-1, 486, 21, 21]             972
             ReLU-89          [-1, 486, 21, 21]               0
      SkipConnect-90          [-1, 486, 21, 21]               0
           Conv2d-91          [-1, 455, 23, 23]       1,990,625
      BatchNorm2d-92          [-1, 455, 23, 23]             910
             ReLU-93          [-1, 455, 23, 23]               0
      SkipConnect-94          [-1, 455, 23, 23]               0
           Conv2d-95          [-1, 207, 25, 25]         847,872
      BatchNorm2d-96          [-1, 207, 25, 25]             414
             ReLU-97          [-1, 207, 25, 25]               0
      SkipConnect-98          [-1, 207, 25, 25]               0
           Conv2d-99          [-1, 163, 27, 27]         303,832
     BatchNorm2d-100          [-1, 163, 27, 27]             326
            ReLU-101          [-1, 163, 27, 27]               0
     SkipConnect-102          [-1, 163, 27, 27]               0
          Conv2d-103          [-1, 505, 29, 29]         741,340
     BatchNorm2d-104          [-1, 505, 29, 29]           1,010
            ReLU-105          [-1, 505, 29, 29]               0
     SkipConnect-106          [-1, 505, 29, 29]               0
       MaxPool2d-107          [-1, 505, 15, 15]               0
          Conv2d-108          [-1, 121, 17, 17]         550,066
     BatchNorm2d-109          [-1, 121, 17, 17]             242
            ReLU-110          [-1, 121, 17, 17]               0
     SkipConnect-111          [-1, 121, 17, 17]               0
          Conv2d-112          [-1, 102, 19, 19]         111,180
     BatchNorm2d-113          [-1, 102, 19, 19]             204
            ReLU-114          [-1, 102, 19, 19]               0
     SkipConnect-115          [-1, 102, 19, 19]               0
          Conv2d-116          [-1, 311, 21, 21]         285,809
     BatchNorm2d-117          [-1, 311, 21, 21]             622
            ReLU-118          [-1, 311, 21, 21]               0
     SkipConnect-119          [-1, 311, 21, 21]               0
          Conv2d-120          [-1, 253, 23, 23]         708,400
     BatchNorm2d-121          [-1, 253, 23, 23]             506
            ReLU-122          [-1, 253, 23, 23]               0
     SkipConnect-123          [-1, 253, 23, 23]               0
       MaxPool2d-124          [-1, 253, 12, 12]               0
       AvgPool2d-125            [-1, 253, 7, 7]               0
          Conv2d-126            [-1, 120, 9, 9]         273,360
     BatchNorm2d-127            [-1, 120, 9, 9]             240
            ReLU-128            [-1, 120, 9, 9]               0
     SkipConnect-129            [-1, 120, 9, 9]               0
          Conv2d-130          [-1, 405, 11, 11]         437,805
     BatchNorm2d-131          [-1, 405, 11, 11]             810
            ReLU-132          [-1, 405, 11, 11]               0
     SkipConnect-133          [-1, 405, 11, 11]               0
       AvgPool2d-134            [-1, 405, 6, 6]               0
       AvgPool2d-135            [-1, 405, 4, 4]               0
       MaxPool2d-136            [-1, 405, 3, 3]               0
       AvgPool2d-137            [-1, 405, 2, 2]               0
          Conv2d-138             [-1, 27, 4, 4]          98,442
     BatchNorm2d-139             [-1, 27, 4, 4]              54
            ReLU-140             [-1, 27, 4, 4]               0
     SkipConnect-141             [-1, 27, 4, 4]               0
          Conv2d-142            [-1, 359, 6, 6]          87,596
     BatchNorm2d-143            [-1, 359, 6, 6]             718
            ReLU-144            [-1, 359, 6, 6]               0
     SkipConnect-145            [-1, 359, 6, 6]               0
       MaxPool2d-146            [-1, 359, 4, 4]               0
       MaxPool2d-147            [-1, 359, 3, 3]               0
       MaxPool2d-148            [-1, 359, 2, 2]               0
================================================================
Total params: 17,594,658
Trainable params: 17,594,658
Non-trainable params: 0
----------------------------------------------------------------
Input size (MB): 0.01
Forward/backward pass size (MB): 87.41
Params size (MB): 67.12
Estimated Total Size (MB): 154.54
----------------------------------------------------------------
Epoch:  1
Epoch: 1 of 3	Acc: 23.4375	Loss: 151.42
Epoch:  2
Epoch: 2 of 3	Acc: 21.875	Loss: 148.67
Epoch:  3
Epoch: 3 of 3	Acc: 23.4375	Loss: 147.85
----------------------------------------------------------------
        Layer (type)               Output Shape         Param #
================================================================
            Conv2d-1           [-1, 16, 34, 34]             448
       BatchNorm2d-2           [-1, 16, 34, 34]              32
              ReLU-3           [-1, 16, 34, 34]               0
       SkipConnect-4           [-1, 16, 34, 34]               0
            Conv2d-5          [-1, 120, 36, 36]          17,400
       BatchNorm2d-6          [-1, 120, 36, 36]             240
              ReLU-7          [-1, 120, 36, 36]               0
       SkipConnect-8          [-1, 120, 36, 36]               0
            Conv2d-9          [-1, 185, 38, 38]         199,985
      BatchNorm2d-10          [-1, 185, 38, 38]             370
             ReLU-11          [-1, 185, 38, 38]               0
      SkipConnect-12          [-1, 185, 38, 38]               0
           Conv2d-13           [-1, 31, 40, 40]          51,646
      BatchNorm2d-14           [-1, 31, 40, 40]              62
             ReLU-15           [-1, 31, 40, 40]               0
      SkipConnect-16           [-1, 31, 40, 40]               0
           Conv2d-17           [-1, 16, 42, 42]           4,480
      BatchNorm2d-18           [-1, 16, 42, 42]              32
             ReLU-19           [-1, 16, 42, 42]               0
      SkipConnect-20           [-1, 16, 42, 42]               0
           Conv2d-21          [-1, 127, 44, 44]          18,415
      BatchNorm2d-22          [-1, 127, 44, 44]             254
             ReLU-23          [-1, 127, 44, 44]               0
      SkipConnect-24          [-1, 127, 44, 44]               0
           Conv2d-25          [-1, 185, 46, 46]         211,640
      BatchNorm2d-26          [-1, 185, 46, 46]             370
             ReLU-27          [-1, 185, 46, 46]               0
      SkipConnect-28          [-1, 185, 46, 46]               0
           Conv2d-29          [-1, 336, 48, 48]         559,776
      BatchNorm2d-30          [-1, 336, 48, 48]             672
             ReLU-31          [-1, 336, 48, 48]               0
      SkipConnect-32          [-1, 336, 48, 48]               0
           Conv2d-33           [-1, 44, 50, 50]         133,100
      BatchNorm2d-34           [-1, 44, 50, 50]              88
             ReLU-35           [-1, 44, 50, 50]               0
      SkipConnect-36           [-1, 44, 50, 50]               0
           Conv2d-37           [-1, 11, 52, 52]           4,367
      BatchNorm2d-38           [-1, 11, 52, 52]              22
             ReLU-39           [-1, 11, 52, 52]               0
      SkipConnect-40           [-1, 11, 52, 52]               0
           Conv2d-41          [-1, 265, 54, 54]          26,500
      BatchNorm2d-42          [-1, 265, 54, 54]             530
             ReLU-43          [-1, 265, 54, 54]               0
      SkipConnect-44          [-1, 265, 54, 54]               0
           Conv2d-45          [-1, 414, 56, 56]         987,804
      BatchNorm2d-46          [-1, 414, 56, 56]             828
             ReLU-47          [-1, 414, 56, 56]               0
      SkipConnect-48          [-1, 414, 56, 56]               0
           Conv2d-49          [-1, 446, 58, 58]       1,662,242
      BatchNorm2d-50          [-1, 446, 58, 58]             892
             ReLU-51          [-1, 446, 58, 58]               0
      SkipConnect-52          [-1, 446, 58, 58]               0
           Conv2d-53          [-1, 268, 60, 60]       1,076,020
      BatchNorm2d-54          [-1, 268, 60, 60]             536
             ReLU-55          [-1, 268, 60, 60]               0
      SkipConnect-56          [-1, 268, 60, 60]               0
           Conv2d-57           [-1, 33, 62, 62]          79,629
      BatchNorm2d-58           [-1, 33, 62, 62]              66
             ReLU-59           [-1, 33, 62, 62]               0
      SkipConnect-60           [-1, 33, 62, 62]               0
           Conv2d-61          [-1, 370, 64, 64]         110,260
      BatchNorm2d-62          [-1, 370, 64, 64]             740
             ReLU-63          [-1, 370, 64, 64]               0
      SkipConnect-64          [-1, 370, 64, 64]               0
           Conv2d-65          [-1, 289, 66, 66]         962,659
      BatchNorm2d-66          [-1, 289, 66, 66]             578
             ReLU-67          [-1, 289, 66, 66]               0
      SkipConnect-68          [-1, 289, 66, 66]               0
        MaxPool2d-69          [-1, 289, 34, 34]               0
        MaxPool2d-70          [-1, 289, 18, 18]               0
           Conv2d-71           [-1, 20, 20, 20]          52,040
      BatchNorm2d-72           [-1, 20, 20, 20]              40
             ReLU-73           [-1, 20, 20, 20]               0
      SkipConnect-74           [-1, 20, 20, 20]               0
           Conv2d-75          [-1, 302, 22, 22]          54,662
      BatchNorm2d-76          [-1, 302, 22, 22]             604
             ReLU-77          [-1, 302, 22, 22]               0
      SkipConnect-78          [-1, 302, 22, 22]               0
        AvgPool2d-79          [-1, 302, 12, 12]               0
        MaxPool2d-80            [-1, 302, 7, 7]               0
           Conv2d-81            [-1, 119, 9, 9]         323,561
      BatchNorm2d-82            [-1, 119, 9, 9]             238
             ReLU-83            [-1, 119, 9, 9]               0
      SkipConnect-84            [-1, 119, 9, 9]               0
           Conv2d-85          [-1, 133, 11, 11]         142,576
      BatchNorm2d-86          [-1, 133, 11, 11]             266
             ReLU-87          [-1, 133, 11, 11]               0
      SkipConnect-88          [-1, 133, 11, 11]               0
        AvgPool2d-89            [-1, 133, 6, 6]               0
           Conv2d-90            [-1, 233, 8, 8]         279,134
      BatchNorm2d-91            [-1, 233, 8, 8]             466
             ReLU-92            [-1, 233, 8, 8]               0
      SkipConnect-93            [-1, 233, 8, 8]               0
           Conv2d-94          [-1, 160, 10, 10]         335,680
      BatchNorm2d-95          [-1, 160, 10, 10]             320
             ReLU-96          [-1, 160, 10, 10]               0
      SkipConnect-97          [-1, 160, 10, 10]               0
        MaxPool2d-98            [-1, 160, 6, 6]               0
           Conv2d-99             [-1, 91, 8, 8]         131,131
     BatchNorm2d-100             [-1, 91, 8, 8]             182
            ReLU-101             [-1, 91, 8, 8]               0
     SkipConnect-102             [-1, 91, 8, 8]               0
          Conv2d-103           [-1, 59, 10, 10]          48,380
     BatchNorm2d-104           [-1, 59, 10, 10]             118
            ReLU-105           [-1, 59, 10, 10]               0
     SkipConnect-106           [-1, 59, 10, 10]               0
          Conv2d-107          [-1, 217, 12, 12]         115,444
     BatchNorm2d-108          [-1, 217, 12, 12]             434
            ReLU-109          [-1, 217, 12, 12]               0
     SkipConnect-110          [-1, 217, 12, 12]               0
          Conv2d-111          [-1, 313, 14, 14]         611,602
     BatchNorm2d-112          [-1, 313, 14, 14]             626
            ReLU-113          [-1, 313, 14, 14]               0
     SkipConnect-114          [-1, 313, 14, 14]               0
       MaxPool2d-115            [-1, 313, 8, 8]               0
       MaxPool2d-116            [-1, 313, 5, 5]               0
          Conv2d-117            [-1, 390, 7, 7]       1,099,020
     BatchNorm2d-118            [-1, 390, 7, 7]             780
            ReLU-119            [-1, 390, 7, 7]               0
     SkipConnect-120            [-1, 390, 7, 7]               0
          Conv2d-121            [-1, 458, 9, 9]       1,608,038
     BatchNorm2d-122            [-1, 458, 9, 9]             916
            ReLU-123            [-1, 458, 9, 9]               0
     SkipConnect-124            [-1, 458, 9, 9]               0
          Conv2d-125          [-1, 177, 11, 11]         729,771
     BatchNorm2d-126          [-1, 177, 11, 11]             354
            ReLU-127          [-1, 177, 11, 11]               0
     SkipConnect-128          [-1, 177, 11, 11]               0
          Conv2d-129          [-1, 201, 13, 13]         320,394
     BatchNorm2d-130          [-1, 201, 13, 13]             402
            ReLU-131          [-1, 201, 13, 13]               0
     SkipConnect-132          [-1, 201, 13, 13]               0
          Conv2d-133          [-1, 286, 15, 15]         517,660
     BatchNorm2d-134          [-1, 286, 15, 15]             572
            ReLU-135          [-1, 286, 15, 15]               0
     SkipConnect-136          [-1, 286, 15, 15]               0
          Conv2d-137           [-1, 63, 17, 17]         162,225
     BatchNorm2d-138           [-1, 63, 17, 17]             126
            ReLU-139           [-1, 63, 17, 17]               0
     SkipConnect-140           [-1, 63, 17, 17]               0
       MaxPool2d-141             [-1, 63, 9, 9]               0
       MaxPool2d-142             [-1, 63, 5, 5]               0
          Conv2d-143            [-1, 315, 7, 7]         178,920
     BatchNorm2d-144            [-1, 315, 7, 7]             630
            ReLU-145            [-1, 315, 7, 7]               0
     SkipConnect-146            [-1, 315, 7, 7]               0
          Conv2d-147            [-1, 221, 9, 9]         626,756
     BatchNorm2d-148            [-1, 221, 9, 9]             442
            ReLU-149            [-1, 221, 9, 9]               0
     SkipConnect-150            [-1, 221, 9, 9]               0
          Conv2d-151          [-1, 374, 11, 11]         744,260
     BatchNorm2d-152          [-1, 374, 11, 11]             748
            ReLU-153          [-1, 374, 11, 11]               0
     SkipConnect-154          [-1, 374, 11, 11]               0
          Conv2d-155          [-1, 510, 13, 13]       1,717,170
     BatchNorm2d-156          [-1, 510, 13, 13]           1,020
            ReLU-157          [-1, 510, 13, 13]               0
     SkipConnect-158          [-1, 510, 13, 13]               0
       AvgPool2d-159            [-1, 510, 7, 7]               0
       MaxPool2d-160            [-1, 510, 4, 4]               0
       MaxPool2d-161            [-1, 510, 3, 3]               0
          Conv2d-162            [-1, 395, 5, 5]       1,813,445
     BatchNorm2d-163            [-1, 395, 5, 5]             790
            ReLU-164            [-1, 395, 5, 5]               0
     SkipConnect-165            [-1, 395, 5, 5]               0
          Conv2d-166            [-1, 179, 7, 7]         636,524
     BatchNorm2d-167            [-1, 179, 7, 7]             358
            ReLU-168            [-1, 179, 7, 7]               0
     SkipConnect-169            [-1, 179, 7, 7]               0
================================================================
Total params: 18,371,508
Trainable params: 18,371,508
Non-trainable params: 0
----------------------------------------------------------------
Input size (MB): 0.01
Forward/backward pass size (MB): 315.63
Params size (MB): 70.08
Estimated Total Size (MB): 385.72
----------------------------------------------------------------
Epoch:  1
Epoch: 1 of 3	Acc: 26.5625	Loss: 148.14
Epoch:  2
Epoch: 2 of 3	Acc: 21.875	Loss: 147.44
Epoch:  3
Epoch: 3 of 3	Acc: 26.5625	Loss: 147.26
----------------------------------------------------------------
        Layer (type)               Output Shape         Param #
================================================================
            Conv2d-1           [-1, 16, 34, 34]             448
       BatchNorm2d-2           [-1, 16, 34, 34]              32
              ReLU-3           [-1, 16, 34, 34]               0
       SkipConnect-4           [-1, 16, 34, 34]               0
         AvgPool2d-5           [-1, 16, 18, 18]               0
         MaxPool2d-6           [-1, 16, 10, 10]               0
            Conv2d-7          [-1, 512, 12, 12]          74,240
       BatchNorm2d-8          [-1, 512, 12, 12]           1,024
              ReLU-9          [-1, 512, 12, 12]               0
      SkipConnect-10          [-1, 512, 12, 12]               0
           Conv2d-11          [-1, 337, 14, 14]       1,553,233
      BatchNorm2d-12          [-1, 337, 14, 14]             674
             ReLU-13          [-1, 337, 14, 14]               0
      SkipConnect-14          [-1, 337, 14, 14]               0
           Conv2d-15          [-1, 109, 16, 16]         330,706
      BatchNorm2d-16          [-1, 109, 16, 16]             218
             ReLU-17          [-1, 109, 16, 16]               0
      SkipConnect-18          [-1, 109, 16, 16]               0
           Conv2d-19           [-1, 99, 18, 18]          97,218
      BatchNorm2d-20           [-1, 99, 18, 18]             198
             ReLU-21           [-1, 99, 18, 18]               0
      SkipConnect-22           [-1, 99, 18, 18]               0
           Conv2d-23          [-1, 104, 20, 20]          92,768
      BatchNorm2d-24          [-1, 104, 20, 20]             208
             ReLU-25          [-1, 104, 20, 20]               0
      SkipConnect-26          [-1, 104, 20, 20]               0
           Conv2d-27          [-1, 429, 22, 22]         401,973
      BatchNorm2d-28          [-1, 429, 22, 22]             858
             ReLU-29          [-1, 429, 22, 22]               0
      SkipConnect-30          [-1, 429, 22, 22]               0
           Conv2d-31          [-1, 497, 24, 24]       1,919,414
      BatchNorm2d-32          [-1, 497, 24, 24]             994
             ReLU-33          [-1, 497, 24, 24]               0
      SkipConnect-34          [-1, 497, 24, 24]               0
           Conv2d-35          [-1, 366, 26, 26]       1,637,484
      BatchNorm2d-36          [-1, 366, 26, 26]             732
             ReLU-37          [-1, 366, 26, 26]               0
      SkipConnect-38          [-1, 366, 26, 26]               0
           Conv2d-39          [-1, 317, 28, 28]       1,044,515
      BatchNorm2d-40          [-1, 317, 28, 28]             634
             ReLU-41          [-1, 317, 28, 28]               0
      SkipConnect-42          [-1, 317, 28, 28]               0
           Conv2d-43          [-1, 385, 30, 30]       1,098,790
      BatchNorm2d-44          [-1, 385, 30, 30]             770
             ReLU-45          [-1, 385, 30, 30]               0
      SkipConnect-46          [-1, 385, 30, 30]               0
        MaxPool2d-47          [-1, 385, 16, 16]               0
           Conv2d-48          [-1, 195, 18, 18]         675,870
      BatchNorm2d-49          [-1, 195, 18, 18]             390
             ReLU-50          [-1, 195, 18, 18]               0
      SkipConnect-51          [-1, 195, 18, 18]               0
           Conv2d-52          [-1, 423, 20, 20]         742,788
      BatchNorm2d-53          [-1, 423, 20, 20]             846
             ReLU-54          [-1, 423, 20, 20]               0
      SkipConnect-55          [-1, 423, 20, 20]               0
        AvgPool2d-56          [-1, 423, 11, 11]               0
           Conv2d-57          [-1, 250, 13, 13]         952,000
      BatchNorm2d-58          [-1, 250, 13, 13]             500
             ReLU-59          [-1, 250, 13, 13]               0
      SkipConnect-60          [-1, 250, 13, 13]               0
           Conv2d-61          [-1, 505, 15, 15]       1,136,755
      BatchNorm2d-62          [-1, 505, 15, 15]           1,010
             ReLU-63          [-1, 505, 15, 15]               0
      SkipConnect-64          [-1, 505, 15, 15]               0
           Conv2d-65          [-1, 353, 17, 17]       1,604,738
      BatchNorm2d-66          [-1, 353, 17, 17]             706
             ReLU-67          [-1, 353, 17, 17]               0
      SkipConnect-68          [-1, 353, 17, 17]               0
           Conv2d-69          [-1, 161, 19, 19]         511,658
      BatchNorm2d-70          [-1, 161, 19, 19]             322
             ReLU-71          [-1, 161, 19, 19]               0
      SkipConnect-72          [-1, 161, 19, 19]               0
           Conv2d-73          [-1, 484, 21, 21]         701,800
      BatchNorm2d-74          [-1, 484, 21, 21]             968
             ReLU-75          [-1, 484, 21, 21]               0
      SkipConnect-76          [-1, 484, 21, 21]               0
           Conv2d-77          [-1, 286, 23, 23]       1,246,102
      BatchNorm2d-78          [-1, 286, 23, 23]             572
             ReLU-79          [-1, 286, 23, 23]               0
      SkipConnect-80          [-1, 286, 23, 23]               0
           Conv2d-81           [-1, 92, 25, 25]         236,900
      BatchNorm2d-82           [-1, 92, 25, 25]             184
             ReLU-83           [-1, 92, 25, 25]               0
      SkipConnect-84           [-1, 92, 25, 25]               0
           Conv2d-85           [-1, 14, 27, 27]          11,606
      BatchNorm2d-86           [-1, 14, 27, 27]              28
             ReLU-87           [-1, 14, 27, 27]               0
      SkipConnect-88           [-1, 14, 27, 27]               0
           Conv2d-89           [-1, 48, 29, 29]           6,096
      BatchNorm2d-90           [-1, 48, 29, 29]              96
             ReLU-91           [-1, 48, 29, 29]               0
      SkipConnect-92           [-1, 48, 29, 29]               0
           Conv2d-93          [-1, 339, 31, 31]         146,787
      BatchNorm2d-94          [-1, 339, 31, 31]             678
             ReLU-95          [-1, 339, 31, 31]               0
      SkipConnect-96          [-1, 339, 31, 31]               0
           Conv2d-97          [-1, 147, 33, 33]         448,644
      BatchNorm2d-98          [-1, 147, 33, 33]             294
             ReLU-99          [-1, 147, 33, 33]               0
     SkipConnect-100          [-1, 147, 33, 33]               0
          Conv2d-101          [-1, 385, 35, 35]         509,740
     BatchNorm2d-102          [-1, 385, 35, 35]             770
            ReLU-103          [-1, 385, 35, 35]               0
     SkipConnect-104          [-1, 385, 35, 35]               0
       MaxPool2d-105          [-1, 385, 18, 18]               0
          Conv2d-106          [-1, 317, 20, 20]       1,098,722
     BatchNorm2d-107          [-1, 317, 20, 20]             634
            ReLU-108          [-1, 317, 20, 20]               0
     SkipConnect-109          [-1, 317, 20, 20]               0
          Conv2d-110           [-1, 27, 22, 22]          77,058
     BatchNorm2d-111           [-1, 27, 22, 22]              54
            ReLU-112           [-1, 27, 22, 22]               0
     SkipConnect-113           [-1, 27, 22, 22]               0
       MaxPool2d-114           [-1, 27, 12, 12]               0
       AvgPool2d-115             [-1, 27, 7, 7]               0
       AvgPool2d-116             [-1, 27, 4, 4]               0
       MaxPool2d-117             [-1, 27, 3, 3]               0
          Conv2d-118            [-1, 398, 5, 5]          97,112
     BatchNorm2d-119            [-1, 398, 5, 5]             796
            ReLU-120            [-1, 398, 5, 5]               0
     SkipConnect-121            [-1, 398, 5, 5]               0
          Conv2d-122             [-1, 12, 7, 7]          42,996
     BatchNorm2d-123             [-1, 12, 7, 7]              24
            ReLU-124             [-1, 12, 7, 7]               0
     SkipConnect-125             [-1, 12, 7, 7]               0
       MaxPool2d-126             [-1, 12, 4, 4]               0
       MaxPool2d-127             [-1, 12, 3, 3]               0
          Conv2d-128            [-1, 317, 5, 5]          34,553
     BatchNorm2d-129            [-1, 317, 5, 5]             634
            ReLU-130            [-1, 317, 5, 5]               0
     SkipConnect-131            [-1, 317, 5, 5]               0
          Conv2d-132            [-1, 335, 7, 7]         956,090
     BatchNorm2d-133            [-1, 335, 7, 7]             670
            ReLU-134            [-1, 335, 7, 7]               0
     SkipConnect-135            [-1, 335, 7, 7]               0
          Conv2d-136             [-1, 34, 9, 9]         102,544
     BatchNorm2d-137             [-1, 34, 9, 9]              68
            ReLU-138             [-1, 34, 9, 9]               0
     SkipConnect-139             [-1, 34, 9, 9]               0
          Conv2d-140          [-1, 214, 11, 11]          65,698
     BatchNorm2d-141          [-1, 214, 11, 11]             428
            ReLU-142          [-1, 214, 11, 11]               0
     SkipConnect-143          [-1, 214, 11, 11]               0
          Conv2d-144          [-1, 219, 13, 13]         422,013
     BatchNorm2d-145          [-1, 219, 13, 13]             438
            ReLU-146          [-1, 219, 13, 13]               0
     SkipConnect-147          [-1, 219, 13, 13]               0
          Conv2d-148          [-1, 345, 15, 15]         680,340
     BatchNorm2d-149          [-1, 345, 15, 15]             690
            ReLU-150          [-1, 345, 15, 15]               0
     SkipConnect-151          [-1, 345, 15, 15]               0
       AvgPool2d-152            [-1, 345, 8, 8]               0
       AvgPool2d-153            [-1, 345, 5, 5]               0
       AvgPool2d-154            [-1, 345, 3, 3]               0
       MaxPool2d-155            [-1, 345, 2, 2]               0
================================================================
Total params: 20,777,541
Trainable params: 20,777,541
Non-trainable params: 0
----------------------------------------------------------------
Input size (MB): 0.01
Forward/backward pass size (MB): 121.26
Params size (MB): 79.26
Estimated Total Size (MB): 200.54
----------------------------------------------------------------
Epoch:  1
Epoch: 1 of 3	Acc: 25.0	Loss: 147.29
Epoch:  2
Epoch: 2 of 3	Acc: 25.0	Loss: 147.28
Epoch:  3
Epoch: 3 of 3	Acc: 25.0	Loss: 147.24
----------------------------------------------------------------
        Layer (type)               Output Shape         Param #
================================================================
            Conv2d-1           [-1, 16, 34, 34]             448
       BatchNorm2d-2           [-1, 16, 34, 34]              32
              ReLU-3           [-1, 16, 34, 34]               0
       SkipConnect-4           [-1, 16, 34, 34]               0
            Conv2d-5          [-1, 437, 36, 36]          63,365
       BatchNorm2d-6          [-1, 437, 36, 36]             874
              ReLU-7          [-1, 437, 36, 36]               0
       SkipConnect-8          [-1, 437, 36, 36]               0
            Conv2d-9          [-1, 178, 38, 38]         700,252
      BatchNorm2d-10          [-1, 178, 38, 38]             356
             ReLU-11          [-1, 178, 38, 38]               0
      SkipConnect-12          [-1, 178, 38, 38]               0
        AvgPool2d-13          [-1, 178, 20, 20]               0
        AvgPool2d-14          [-1, 178, 11, 11]               0
        AvgPool2d-15            [-1, 178, 6, 6]               0
           Conv2d-16            [-1, 316, 8, 8]         506,548
      BatchNorm2d-17            [-1, 316, 8, 8]             632
             ReLU-18            [-1, 316, 8, 8]               0
      SkipConnect-19            [-1, 316, 8, 8]               0
           Conv2d-20          [-1, 487, 10, 10]       1,385,515
      BatchNorm2d-21          [-1, 487, 10, 10]             974
             ReLU-22          [-1, 487, 10, 10]               0
      SkipConnect-23          [-1, 487, 10, 10]               0
        AvgPool2d-24            [-1, 487, 6, 6]               0
        MaxPool2d-25            [-1, 487, 4, 4]               0
           Conv2d-26            [-1, 142, 6, 6]         622,528
      BatchNorm2d-27            [-1, 142, 6, 6]             284
             ReLU-28            [-1, 142, 6, 6]               0
      SkipConnect-29            [-1, 142, 6, 6]               0
           Conv2d-30             [-1, 24, 8, 8]          30,696
      BatchNorm2d-31             [-1, 24, 8, 8]              48
             ReLU-32             [-1, 24, 8, 8]               0
      SkipConnect-33             [-1, 24, 8, 8]               0
           Conv2d-34          [-1, 326, 10, 10]          70,742
      BatchNorm2d-35          [-1, 326, 10, 10]             652
             ReLU-36          [-1, 326, 10, 10]               0
      SkipConnect-37          [-1, 326, 10, 10]               0
           Conv2d-38          [-1, 331, 12, 12]         971,485
      BatchNorm2d-39          [-1, 331, 12, 12]             662
             ReLU-40          [-1, 331, 12, 12]               0
      SkipConnect-41          [-1, 331, 12, 12]               0
           Conv2d-42          [-1, 328, 14, 14]         977,440
      BatchNorm2d-43          [-1, 328, 14, 14]             656
             ReLU-44          [-1, 328, 14, 14]               0
      SkipConnect-45          [-1, 328, 14, 14]               0
           Conv2d-46          [-1, 401, 16, 16]       1,184,153
      BatchNorm2d-47          [-1, 401, 16, 16]             802
             ReLU-48          [-1, 401, 16, 16]               0
      SkipConnect-49          [-1, 401, 16, 16]               0
           Conv2d-50           [-1, 77, 18, 18]         277,970
      BatchNorm2d-51           [-1, 77, 18, 18]             154
             ReLU-52           [-1, 77, 18, 18]               0
      SkipConnect-53           [-1, 77, 18, 18]               0
           Conv2d-54          [-1, 179, 20, 20]         124,226
      BatchNorm2d-55          [-1, 179, 20, 20]             358
             ReLU-56          [-1, 179, 20, 20]               0
      SkipConnect-57          [-1, 179, 20, 20]               0
        MaxPool2d-58          [-1, 179, 11, 11]               0
           Conv2d-59           [-1, 36, 13, 13]          58,032
      BatchNorm2d-60           [-1, 36, 13, 13]              72
             ReLU-61           [-1, 36, 13, 13]               0
      SkipConnect-62           [-1, 36, 13, 13]               0
           Conv2d-63          [-1, 423, 15, 15]         137,475
      BatchNorm2d-64          [-1, 423, 15, 15]             846
             ReLU-65          [-1, 423, 15, 15]               0
      SkipConnect-66          [-1, 423, 15, 15]               0
           Conv2d-67          [-1, 159, 17, 17]         605,472
      BatchNorm2d-68          [-1, 159, 17, 17]             318
             ReLU-69          [-1, 159, 17, 17]               0
      SkipConnect-70          [-1, 159, 17, 17]               0
           Conv2d-71          [-1, 246, 19, 19]         352,272
      BatchNorm2d-72          [-1, 246, 19, 19]             492
             ReLU-73          [-1, 246, 19, 19]               0
      SkipConnect-74          [-1, 246, 19, 19]               0
        MaxPool2d-75          [-1, 246, 10, 10]               0
           Conv2d-76           [-1, 88, 12, 12]         194,920
      BatchNorm2d-77           [-1, 88, 12, 12]             176
             ReLU-78           [-1, 88, 12, 12]               0
      SkipConnect-79           [-1, 88, 12, 12]               0
           Conv2d-80          [-1, 250, 14, 14]         198,250
      BatchNorm2d-81          [-1, 250, 14, 14]             500
             ReLU-82          [-1, 250, 14, 14]               0
      SkipConnect-83          [-1, 250, 14, 14]               0
           Conv2d-84           [-1, 36, 16, 16]          81,036
      BatchNorm2d-85           [-1, 36, 16, 16]              72
             ReLU-86           [-1, 36, 16, 16]               0
      SkipConnect-87           [-1, 36, 16, 16]               0
           Conv2d-88          [-1, 285, 18, 18]          92,625
      BatchNorm2d-89          [-1, 285, 18, 18]             570
             ReLU-90          [-1, 285, 18, 18]               0
      SkipConnect-91          [-1, 285, 18, 18]               0
        AvgPool2d-92          [-1, 285, 10, 10]               0
           Conv2d-93          [-1, 450, 12, 12]       1,154,700
      BatchNorm2d-94          [-1, 450, 12, 12]             900
             ReLU-95          [-1, 450, 12, 12]               0
      SkipConnect-96          [-1, 450, 12, 12]               0
           Conv2d-97          [-1, 364, 14, 14]       1,474,564
      BatchNorm2d-98          [-1, 364, 14, 14]             728
             ReLU-99          [-1, 364, 14, 14]               0
     SkipConnect-100          [-1, 364, 14, 14]               0
          Conv2d-101          [-1, 466, 16, 16]       1,527,082
     BatchNorm2d-102          [-1, 466, 16, 16]             932
            ReLU-103          [-1, 466, 16, 16]               0
     SkipConnect-104          [-1, 466, 16, 16]               0
          Conv2d-105          [-1, 171, 18, 18]         717,345
     BatchNorm2d-106          [-1, 171, 18, 18]             342
            ReLU-107          [-1, 171, 18, 18]               0
     SkipConnect-108          [-1, 171, 18, 18]               0
       MaxPool2d-109          [-1, 171, 10, 10]               0
          Conv2d-110          [-1, 491, 12, 12]         756,140
     BatchNorm2d-111          [-1, 491, 12, 12]             982
            ReLU-112          [-1, 491, 12, 12]               0
     SkipConnect-113          [-1, 491, 12, 12]               0
          Conv2d-114          [-1, 403, 14, 14]       1,781,260
     BatchNorm2d-115          [-1, 403, 14, 14]             806
            ReLU-116          [-1, 403, 14, 14]               0
     SkipConnect-117          [-1, 403, 14, 14]               0
          Conv2d-118          [-1, 204, 16, 16]         740,112
     BatchNorm2d-119          [-1, 204, 16, 16]             408
            ReLU-120          [-1, 204, 16, 16]               0
     SkipConnect-121          [-1, 204, 16, 16]               0
          Conv2d-122           [-1, 85, 18, 18]         156,145
     BatchNorm2d-123           [-1, 85, 18, 18]             170
            ReLU-124           [-1, 85, 18, 18]               0
     SkipConnect-125           [-1, 85, 18, 18]               0
          Conv2d-126          [-1, 261, 20, 20]         199,926
     BatchNorm2d-127          [-1, 261, 20, 20]             522
            ReLU-128          [-1, 261, 20, 20]               0
     SkipConnect-129          [-1, 261, 20, 20]               0
          Conv2d-130          [-1, 211, 22, 22]         495,850
     BatchNorm2d-131          [-1, 211, 22, 22]             422
            ReLU-132          [-1, 211, 22, 22]               0
     SkipConnect-133          [-1, 211, 22, 22]               0
       AvgPool2d-134          [-1, 211, 12, 12]               0
       AvgPool2d-135            [-1, 211, 7, 7]               0
          Conv2d-136            [-1, 453, 9, 9]         860,700
     BatchNorm2d-137            [-1, 453, 9, 9]             906
            ReLU-138            [-1, 453, 9, 9]               0
     SkipConnect-139            [-1, 453, 9, 9]               0
          Conv2d-140           [-1, 17, 11, 11]          69,326
     BatchNorm2d-141           [-1, 17, 11, 11]              34
            ReLU-142           [-1, 17, 11, 11]               0
     SkipConnect-143           [-1, 17, 11, 11]               0
          Conv2d-144          [-1, 175, 13, 13]          26,950
     BatchNorm2d-145          [-1, 175, 13, 13]             350
            ReLU-146          [-1, 175, 13, 13]               0
     SkipConnect-147          [-1, 175, 13, 13]               0
          Conv2d-148          [-1, 192, 15, 15]         302,592
     BatchNorm2d-149          [-1, 192, 15, 15]             384
            ReLU-150          [-1, 192, 15, 15]               0
     SkipConnect-151          [-1, 192, 15, 15]               0
          Conv2d-152           [-1, 51, 17, 17]          88,179
     BatchNorm2d-153           [-1, 51, 17, 17]             102
            ReLU-154           [-1, 51, 17, 17]               0
     SkipConnect-155           [-1, 51, 17, 17]               0
          Conv2d-156           [-1, 50, 19, 19]          23,000
     BatchNorm2d-157           [-1, 50, 19, 19]             100
            ReLU-158           [-1, 50, 19, 19]               0
     SkipConnect-159           [-1, 50, 19, 19]               0
       AvgPool2d-160           [-1, 50, 10, 10]               0
       AvgPool2d-161             [-1, 50, 6, 6]               0
          Conv2d-162             [-1, 37, 8, 8]          16,687
     BatchNorm2d-163             [-1, 37, 8, 8]              74
            ReLU-164             [-1, 37, 8, 8]               0
     SkipConnect-165             [-1, 37, 8, 8]               0
          Conv2d-166           [-1, 55, 10, 10]          18,370
     BatchNorm2d-167           [-1, 55, 10, 10]             110
            ReLU-168           [-1, 55, 10, 10]               0
     SkipConnect-169           [-1, 55, 10, 10]               0
================================================================
Total params: 19,062,180
Trainable params: 19,062,180
Non-trainable params: 0
----------------------------------------------------------------
Input size (MB): 0.01
Forward/backward pass size (MB): 80.12
Params size (MB): 72.72
Estimated Total Size (MB): 152.85
----------------------------------------------------------------
Epoch:  1
…
 '437-178-0.0-0.5-0.3-316-487-0.4-0.7-142-24-326-331-328-401-77-179-0.7-36-423-159-246-0.9-88-250-36-285-0.4-450-364-466-171-0.9-491-403-204-85-261-211-0.1-0.1-453-17-175-192-51-50-0.4-0.4-37-55': 37.5,
 '449-396-0.2-0.3-0.5-0.9-0.1-0.9-0.1-0.4-0.5-4-144-69-198-245-341-0.6-0.4-439-267-458-133-1.0-0.4-1.0-0.5-0.1-301-29-0.3-215-84-193-253-433-237-0.7-97-415-0.9-0.6-0.0': 12.5}
Generation: 2
Files already downloaded and verified
Files already downloaded and verified
----------------------------------------------------------------
        Layer (type)               Output Shape         Param #
================================================================
            Conv2d-1           [-1, 16, 34, 34]             448
       BatchNorm2d-2           [-1, 16, 34, 34]              32
              ReLU-3           [-1, 16, 34, 34]               0
       SkipConnect-4           [-1, 16, 34, 34]               0
            Conv2d-5          [-1, 449, 36, 36]          65,105
       BatchNorm2d-6          [-1, 449, 36, 36]             898
              ReLU-7          [-1, 449, 36, 36]               0
       SkipConnect-8          [-1, 449, 36, 36]               0
            Conv2d-9          [-1, 396, 38, 38]       1,600,632
      BatchNorm2d-10          [-1, 396, 38, 38]             792
             ReLU-11          [-1, 396, 38, 38]               0
      SkipConnect-12          [-1, 396, 38, 38]               0
        AvgPool2d-13          [-1, 396, 20, 20]               0
        AvgPool2d-14          [-1, 396, 11, 11]               0
        AvgPool2d-15            [-1, 396, 6, 6]               0
        MaxPool2d-16            [-1, 396, 4, 4]               0
        AvgPool2d-17            [-1, 396, 3, 3]               0
        MaxPool2d-18            [-1, 396, 2, 2]               0
        AvgPool2d-19            [-1, 396, 2, 2]               0
        AvgPool2d-20            [-1, 396, 2, 2]               0
        AvgPool2d-21            [-1, 396, 2, 2]               0
           Conv2d-22              [-1, 4, 4, 4]          14,260
      BatchNorm2d-23              [-1, 4, 4, 4]               8
             ReLU-24              [-1, 4, 4, 4]               0
      SkipConnect-25              [-1, 4, 4, 4]               0
           Conv2d-26            [-1, 144, 6, 6]           5,328
      BatchNorm2d-27            [-1, 144, 6, 6]             288
             ReLU-28            [-1, 144, 6, 6]               0
      SkipConnect-29            [-1, 144, 6, 6]               0
           Conv2d-30             [-1, 69, 8, 8]          89,493
      BatchNorm2d-31             [-1, 69, 8, 8]             138
             ReLU-32             [-1, 69, 8, 8]               0
      SkipConnect-33             [-1, 69, 8, 8]               0
           Conv2d-34          [-1, 198, 10, 10]         123,156
      BatchNorm2d-35          [-1, 198, 10, 10]             396
             ReLU-36          [-1, 198, 10, 10]               0
      SkipConnect-37          [-1, 198, 10, 10]               0
           Conv2d-38          [-1, 245, 12, 12]         436,835
      BatchNorm2d-39          [-1, 245, 12, 12]             490
             ReLU-40          [-1, 245, 12, 12]               0
      SkipConnect-41          [-1, 245, 12, 12]               0
           Conv2d-42          [-1, 341, 14, 14]         752,246
      BatchNorm2d-43          [-1, 341, 14, 14]             682
             ReLU-44          [-1, 341, 14, 14]               0
      SkipConnect-45          [-1, 341, 14, 14]               0
        MaxPool2d-46            [-1, 341, 8, 8]               0
        AvgPool2d-47            [-1, 341, 5, 5]               0
           Conv2d-48            [-1, 439, 7, 7]       1,347,730
      BatchNorm2d-49            [-1, 439, 7, 7]             878
             ReLU-50            [-1, 439, 7, 7]               0
      SkipConnect-51            [-1, 439, 7, 7]               0
           Conv2d-52            [-1, 267, 9, 9]       1,055,184
      BatchNorm2d-53            [-1, 267, 9, 9]             534
             ReLU-54            [-1, 267, 9, 9]               0
      SkipConnect-55            [-1, 267, 9, 9]               0
           Conv2d-56          [-1, 458, 11, 11]       1,101,032
      BatchNorm2d-57          [-1, 458, 11, 11]             916
             ReLU-58          [-1, 458, 11, 11]               0
      SkipConnect-59          [-1, 458, 11, 11]               0
           Conv2d-60          [-1, 133, 13, 13]         548,359
      BatchNorm2d-61          [-1, 133, 13, 13]             266
             ReLU-62          [-1, 133, 13, 13]               0
      SkipConnect-63          [-1, 133, 13, 13]               0
        MaxPool2d-64            [-1, 133, 7, 7]               0
        AvgPool2d-65            [-1, 133, 4, 4]               0
        MaxPool2d-66            [-1, 133, 3, 3]               0
        AvgPool2d-67            [-1, 133, 2, 2]               0
        AvgPool2d-68            [-1, 133, 2, 2]               0
           Conv2d-69            [-1, 301, 4, 4]         360,598
      BatchNorm2d-70            [-1, 301, 4, 4]             602
             ReLU-71            [-1, 301, 4, 4]               0
      SkipConnect-72            [-1, 301, 4, 4]               0
           Conv2d-73            [-1, 505, 6, 6]       1,368,550
      BatchNorm2d-74            [-1, 505, 6, 6]           1,010
             ReLU-75            [-1, 505, 6, 6]               0
      SkipConnect-76            [-1, 505, 6, 6]               0
        MaxPool2d-77            [-1, 505, 4, 4]               0
           Conv2d-78            [-1, 121, 6, 6]         550,066
      BatchNorm2d-79            [-1, 121, 6, 6]             242
             ReLU-80            [-1, 121, 6, 6]               0
      SkipConnect-81            [-1, 121, 6, 6]               0
           Conv2d-82            [-1, 102, 8, 8]         111,180
      BatchNorm2d-83            [-1, 102, 8, 8]             204
             ReLU-84            [-1, 102, 8, 8]               0
      SkipConnect-85            [-1, 102, 8, 8]               0
           Conv2d-86          [-1, 311, 10, 10]         285,809
      BatchNorm2d-87          [-1, 311, 10, 10]             622
             ReLU-88          [-1, 311, 10, 10]               0
      SkipConnect-89          [-1, 311, 10, 10]               0
           Conv2d-90          [-1, 253, 12, 12]         708,400
      BatchNorm2d-91          [-1, 253, 12, 12]             506
             ReLU-92          [-1, 253, 12, 12]               0
      SkipConnect-93          [-1, 253, 12, 12]               0
        MaxPool2d-94            [-1, 253, 7, 7]               0
        AvgPool2d-95            [-1, 253, 4, 4]               0
           Conv2d-96            [-1, 120, 6, 6]         273,360
      BatchNorm2d-97            [-1, 120, 6, 6]             240
             ReLU-98            [-1, 120, 6, 6]               0
      SkipConnect-99            [-1, 120, 6, 6]               0
          Conv2d-100            [-1, 405, 8, 8]         437,805
     BatchNorm2d-101            [-1, 405, 8, 8]             810
            ReLU-102            [-1, 405, 8, 8]               0
     SkipConnect-103            [-1, 405, 8, 8]               0
       AvgPool2d-104            [-1, 405, 5, 5]               0
       AvgPool2d-105            [-1, 405, 3, 3]               0
       MaxPool2d-106            [-1, 405, 2, 2]               0
       AvgPool2d-107            [-1, 405, 2, 2]               0
          Conv2d-108             [-1, 27, 4, 4]          98,442
     BatchNorm2d-109             [-1, 27, 4, 4]              54
            ReLU-110             [-1, 27, 4, 4]               0
     SkipConnect-111             [-1, 27, 4, 4]               0
          Conv2d-112            [-1, 359, 6, 6]          87,596
     BatchNorm2d-113            [-1, 359, 6, 6]             718
            ReLU-114            [-1, 359, 6, 6]               0
     SkipConnect-115            [-1, 359, 6, 6]               0
       MaxPool2d-116            [-1, 359, 4, 4]               0
       MaxPool2d-117            [-1, 359, 3, 3]               0
       MaxPool2d-118            [-1, 359, 2, 2]               0
================================================================
Total params: 11,432,940
Trainable params: 11,432,940
Non-trainable params: 0
----------------------------------------------------------------
Input size (MB): 0.01
Forward/backward pass size (MB): 50.43
Params size (MB): 43.61
Estimated Total Size (MB): 94.05
----------------------------------------------------------------
Epoch:  1
Epoch: 1 of 3	Acc: 26.5625	Loss: 151.23
Epoch:  2
Epoch: 2 of 3	Acc: 23.4375	Loss: 148.56
Epoch:  3
Epoch: 3 of 3	Acc: 21.875	Loss: 147.78
----------------------------------------------------------------
        Layer (type)               Output Shape         Param #
================================================================
            Conv2d-1           [-1, 16, 34, 34]             448
       BatchNorm2d-2           [-1, 16, 34, 34]              32
              ReLU-3           [-1, 16, 34, 34]               0
       SkipConnect-4           [-1, 16, 34, 34]               0
         MaxPool2d-5           [-1, 16, 18, 18]               0
         MaxPool2d-6           [-1, 16, 10, 10]               0
            Conv2d-7           [-1, 29, 12, 12]           4,205
       BatchNorm2d-8           [-1, 29, 12, 12]              58
              ReLU-9           [-1, 29, 12, 12]               0
      SkipConnect-10           [-1, 29, 12, 12]               0
           Conv2d-11          [-1, 302, 14, 14]          79,124
      BatchNorm2d-12          [-1, 302, 14, 14]             604
             ReLU-13          [-1, 302, 14, 14]               0
      SkipConnect-14          [-1, 302, 14, 14]               0
           Conv2d-15           [-1, 28, 16, 16]          76,132
      BatchNorm2d-16           [-1, 28, 16, 16]              56
             ReLU-17           [-1, 28, 16, 16]               0
      SkipConnect-18           [-1, 28, 16, 16]               0
           Conv2d-19          [-1, 219, 18, 18]          55,407
      BatchNorm2d-20          [-1, 219, 18, 18]             438
             ReLU-21          [-1, 219, 18, 18]               0
      SkipConnect-22          [-1, 219, 18, 18]               0
        MaxPool2d-23          [-1, 219, 10, 10]               0
           Conv2d-24           [-1, 75, 12, 12]         147,900
      BatchNorm2d-25           [-1, 75, 12, 12]             150
             ReLU-26           [-1, 75, 12, 12]               0
      SkipConnect-27           [-1, 75, 12, 12]               0
           Conv2d-28          [-1, 333, 14, 14]         225,108
      BatchNorm2d-29          [-1, 333, 14, 14]             666
             ReLU-30          [-1, 333, 14, 14]               0
      SkipConnect-31          [-1, 333, 14, 14]               0
        AvgPool2d-32            [-1, 333, 8, 8]               0
        AvgPool2d-33            [-1, 333, 5, 5]               0
        AvgPool2d-34            [-1, 333, 3, 3]               0
           Conv2d-35            [-1, 459, 5, 5]       1,376,082
      BatchNorm2d-36            [-1, 459, 5, 5]             918
             ReLU-37            [-1, 459, 5, 5]               0
      SkipConnect-38            [-1, 459, 5, 5]               0
           Conv2d-39            [-1, 184, 7, 7]         760,288
      BatchNorm2d-40            [-1, 184, 7, 7]             368
             ReLU-41            [-1, 184, 7, 7]               0
      SkipConnect-42            [-1, 184, 7, 7]               0
           Conv2d-43            [-1, 202, 9, 9]         334,714
      BatchNorm2d-44            [-1, 202, 9, 9]             404
             ReLU-45            [-1, 202, 9, 9]               0
      SkipConnect-46            [-1, 202, 9, 9]               0
           Conv2d-47            [-1, 9, 11, 11]          16,371
      BatchNorm2d-48            [-1, 9, 11, 11]              18
             ReLU-49            [-1, 9, 11, 11]               0
      SkipConnect-50            [-1, 9, 11, 11]               0
        MaxPool2d-51              [-1, 9, 6, 6]               0
        AvgPool2d-52              [-1, 9, 4, 4]               0
           Conv2d-53            [-1, 328, 6, 6]          26,896
      BatchNorm2d-54            [-1, 328, 6, 6]             656
             ReLU-55            [-1, 328, 6, 6]               0
      SkipConnect-56            [-1, 328, 6, 6]               0
           Conv2d-57            [-1, 235, 8, 8]         693,955
      BatchNorm2d-58            [-1, 235, 8, 8]             470
             ReLU-59            [-1, 235, 8, 8]               0
      SkipConnect-60            [-1, 235, 8, 8]               0
           Conv2d-61          [-1, 129, 10, 10]         272,964
      BatchNorm2d-62          [-1, 129, 10, 10]             258
             ReLU-63          [-1, 129, 10, 10]               0
      SkipConnect-64          [-1, 129, 10, 10]               0
           Conv2d-65          [-1, 179, 12, 12]         207,998
      BatchNorm2d-66          [-1, 179, 12, 12]             358
             ReLU-67          [-1, 179, 12, 12]               0
      SkipConnect-68          [-1, 179, 12, 12]               0
        MaxPool2d-69            [-1, 179, 7, 7]               0
           Conv2d-70            [-1, 462, 9, 9]         744,744
      BatchNorm2d-71            [-1, 462, 9, 9]             924
             ReLU-72            [-1, 462, 9, 9]               0
      SkipConnect-73            [-1, 462, 9, 9]               0
           Conv2d-74          [-1, 165, 11, 11]         686,235
      BatchNorm2d-75          [-1, 165, 11, 11]             330
             ReLU-76          [-1, 165, 11, 11]               0
      SkipConnect-77          [-1, 165, 11, 11]               0
        MaxPool2d-78            [-1, 165, 6, 6]               0
           Conv2d-79            [-1, 148, 8, 8]         219,928
      BatchNorm2d-80            [-1, 148, 8, 8]             296
             ReLU-81            [-1, 148, 8, 8]               0
      SkipConnect-82            [-1, 148, 8, 8]               0
           Conv2d-83           [-1, 97, 10, 10]         129,301
      BatchNorm2d-84           [-1, 97, 10, 10]             194
             ReLU-85           [-1, 97, 10, 10]               0
      SkipConnect-86           [-1, 97, 10, 10]               0
           Conv2d-87          [-1, 344, 12, 12]         300,656
      BatchNorm2d-88          [-1, 344, 12, 12]             688
             ReLU-89          [-1, 344, 12, 12]               0
      SkipConnect-90          [-1, 344, 12, 12]               0
           Conv2d-91          [-1, 401, 14, 14]       1,241,897
      BatchNorm2d-92          [-1, 401, 14, 14]             802
             ReLU-93          [-1, 401, 14, 14]               0
      SkipConnect-94          [-1, 401, 14, 14]               0
        AvgPool2d-95            [-1, 401, 8, 8]               0
           Conv2d-96           [-1, 56, 10, 10]         202,160
      BatchNorm2d-97           [-1, 56, 10, 10]             112
             ReLU-98           [-1, 56, 10, 10]               0
      SkipConnect-99           [-1, 56, 10, 10]               0
          Conv2d-100          [-1, 442, 12, 12]         223,210
     BatchNorm2d-101          [-1, 442, 12, 12]             884
            ReLU-102          [-1, 442, 12, 12]               0
     SkipConnect-103          [-1, 442, 12, 12]               0
          Conv2d-104          [-1, 323, 14, 14]       1,285,217
     BatchNorm2d-105          [-1, 323, 14, 14]             646
            ReLU-106          [-1, 323, 14, 14]               0
     SkipConnect-107          [-1, 323, 14, 14]               0
          Conv2d-108          [-1, 398, 16, 16]       1,157,384
     BatchNorm2d-109          [-1, 398, 16, 16]             796
            ReLU-110          [-1, 398, 16, 16]               0
     SkipConnect-111          [-1, 398, 16, 16]               0
       MaxPool2d-112            [-1, 398, 9, 9]               0
          Conv2d-113          [-1, 389, 11, 11]       1,393,787
     BatchNorm2d-114          [-1, 389, 11, 11]             778
            ReLU-115          [-1, 389, 11, 11]               0
     SkipConnect-116          [-1, 389, 11, 11]               0
          Conv2d-117          [-1, 160, 13, 13]         560,320
     BatchNorm2d-118          [-1, 160, 13, 13]             320
            ReLU-119          [-1, 160, 13, 13]               0
     SkipConnect-120          [-1, 160, 13, 13]               0
       MaxPool2d-121            [-1, 160, 7, 7]               0
          Conv2d-122             [-1, 54, 9, 9]          77,814
     BatchNorm2d-123             [-1, 54, 9, 9]             108
            ReLU-124             [-1, 54, 9, 9]               0
     SkipConnect-125             [-1, 54, 9, 9]               0
          Conv2d-126          [-1, 468, 11, 11]         227,916
     BatchNorm2d-127          [-1, 468, 11, 11]             936
            ReLU-128          [-1, 468, 11, 11]               0
     SkipConnect-129          [-1, 468, 11, 11]               0
          Conv2d-130          [-1, 250, 13, 13]       1,053,250
     BatchNorm2d-131          [-1, 250, 13, 13]             500
            ReLU-132          [-1, 250, 13, 13]               0
     SkipConnect-133          [-1, 250, 13, 13]               0
          Conv2d-134           [-1, 25, 15, 15]          56,275
     BatchNorm2d-135           [-1, 25, 15, 15]              50
            ReLU-136           [-1, 25, 15, 15]               0
     SkipConnect-137           [-1, 25, 15, 15]               0
          Conv2d-138          [-1, 388, 17, 17]          87,688
     BatchNorm2d-139          [-1, 388, 17, 17]             776
            ReLU-140          [-1, 388, 17, 17]               0
     SkipConnect-141          [-1, 388, 17, 17]               0
          Conv2d-142          [-1, 331, 19, 19]       1,156,183
     BatchNorm2d-143          [-1, 331, 19, 19]             662
            ReLU-144          [-1, 331, 19, 19]               0
     SkipConnect-145          [-1, 331, 19, 19]               0
       AvgPool2d-146          [-1, 331, 10, 10]               0
          Conv2d-147          [-1, 422, 12, 12]       1,257,560
     BatchNorm2d-148          [-1, 422, 12, 12]             844
            ReLU-149          [-1, 422, 12, 12]               0
     SkipConnect-150          [-1, 422, 12, 12]               0
          Conv2d-151          [-1, 472, 14, 14]       1,793,128
     BatchNorm2d-152          [-1, 472, 14, 14]             944
            ReLU-153          [-1, 472, 14, 14]               0
     SkipConnect-154          [-1, 472, 14, 14]               0
          Conv2d-155           [-1, 50, 16, 16]         212,450
     BatchNorm2d-156           [-1, 50, 16, 16]             100
            ReLU-157           [-1, 50, 16, 16]               0
     SkipConnect-158           [-1, 50, 16, 16]               0
          Conv2d-159          [-1, 399, 18, 18]         179,949
     BatchNorm2d-160          [-1, 399, 18, 18]             798
            ReLU-161          [-1, 399, 18, 18]               0
     SkipConnect-162          [-1, 399, 18, 18]               0
       MaxPool2d-163          [-1, 399, 10, 10]               0
================================================================
Total params: 18,542,586
Trainable params: 18,542,586
Non-trainable params: 0
----------------------------------------------------------------
Input size (MB): 0.01
Forward/backward pass size (MB): 47.07
Params size (MB): 70.73
Estimated Total Size (MB): 117.82
----------------------------------------------------------------
Epoch:  1
Epoch: 1 of 3	Acc: 21.875	Loss: 148.91
Epoch:  2
Epoch: 2 of 3	Acc: 26.5625	Loss: 148.47
Epoch:  3
Epoch: 3 of 3	Acc: 23.4375	Loss: 148.38
----------------------------------------------------------------
        Layer (type)               Output Shape         Param #
================================================================
            Conv2d-1           [-1, 16, 34, 34]             448
       BatchNorm2d-2           [-1, 16, 34, 34]              32
              ReLU-3           [-1, 16, 34, 34]               0
       SkipConnect-4           [-1, 16, 34, 34]               0
         AvgPool2d-5           [-1, 16, 18, 18]               0
         AvgPool2d-6           [-1, 16, 10, 10]               0
            Conv2d-7          [-1, 317, 12, 12]          45,965
       BatchNorm2d-8          [-1, 317, 12, 12]             634
              ReLU-9          [-1, 317, 12, 12]               0
      SkipConnect-10          [-1, 317, 12, 12]               0
           Conv2d-11          [-1, 172, 14, 14]         490,888
      BatchNorm2d-12          [-1, 172, 14, 14]             344
             ReLU-13          [-1, 172, 14, 14]               0
      SkipConnect-14          [-1, 172, 14, 14]               0
           Conv2d-15          [-1, 178, 16, 16]         275,722
      BatchNorm2d-16          [-1, 178, 16, 16]             356
             ReLU-17          [-1, 178, 16, 16]               0
      SkipConnect-18          [-1, 178, 16, 16]               0
           Conv2d-19          [-1, 163, 18, 18]         261,289
      BatchNorm2d-20          [-1, 163, 18, 18]             326
             ReLU-21          [-1, 163, 18, 18]               0
      SkipConnect-22          [-1, 163, 18, 18]               0
           Conv2d-23          [-1, 272, 20, 20]         399,296
      BatchNorm2d-24          [-1, 272, 20, 20]             544
             ReLU-25          [-1, 272, 20, 20]               0
      SkipConnect-26          [-1, 272, 20, 20]               0
           Conv2d-27          [-1, 378, 22, 22]         925,722
      BatchNorm2d-28          [-1, 378, 22, 22]             756
             ReLU-29          [-1, 378, 22, 22]               0
      SkipConnect-30          [-1, 378, 22, 22]               0
           Conv2d-31           [-1, 80, 24, 24]         272,240
      BatchNorm2d-32           [-1, 80, 24, 24]             160
             ReLU-33           [-1, 80, 24, 24]               0
      SkipConnect-34           [-1, 80, 24, 24]               0
           Conv2d-35          [-1, 100, 26, 26]          72,100
      BatchNorm2d-36          [-1, 100, 26, 26]             200
             ReLU-37          [-1, 100, 26, 26]               0
      SkipConnect-38          [-1, 100, 26, 26]               0
        MaxPool2d-39          [-1, 100, 14, 14]               0
           Conv2d-40           [-1, 71, 16, 16]          63,971
      BatchNorm2d-41           [-1, 71, 16, 16]             142
             ReLU-42           [-1, 71, 16, 16]               0
      SkipConnect-43           [-1, 71, 16, 16]               0
           Conv2d-44          [-1, 150, 18, 18]          96,000
      BatchNorm2d-45          [-1, 150, 18, 18]             300
             ReLU-46          [-1, 150, 18, 18]               0
      SkipConnect-47          [-1, 150, 18, 18]               0
        AvgPool2d-48          [-1, 150, 10, 10]               0
           Conv2d-49           [-1, 93, 12, 12]         125,643
      BatchNorm2d-50           [-1, 93, 12, 12]             186
             ReLU-51           [-1, 93, 12, 12]               0
      SkipConnect-52           [-1, 93, 12, 12]               0
           Conv2d-53          [-1, 197, 14, 14]         165,086
      BatchNorm2d-54          [-1, 197, 14, 14]             394
             ReLU-55          [-1, 197, 14, 14]               0
      SkipConnect-56          [-1, 197, 14, 14]               0
           Conv2d-57          [-1, 276, 16, 16]         489,624
      BatchNorm2d-58          [-1, 276, 16, 16]             552
             ReLU-59          [-1, 276, 16, 16]               0
      SkipConnect-60          [-1, 276, 16, 16]               0
           Conv2d-61          [-1, 403, 18, 18]       1,001,455
      BatchNorm2d-62          [-1, 403, 18, 18]             806
             ReLU-63          [-1, 403, 18, 18]               0
      SkipConnect-64          [-1, 403, 18, 18]               0
        MaxPool2d-65          [-1, 403, 10, 10]               0
           Conv2d-66          [-1, 405, 12, 12]       1,469,340
      BatchNorm2d-67          [-1, 405, 12, 12]             810
             ReLU-68          [-1, 405, 12, 12]               0
      SkipConnect-69          [-1, 405, 12, 12]               0
           Conv2d-70          [-1, 483, 14, 14]       1,761,018
      BatchNorm2d-71          [-1, 483, 14, 14]             966
             ReLU-72          [-1, 483, 14, 14]               0
      SkipConnect-73          [-1, 483, 14, 14]               0
        AvgPool2d-74            [-1, 483, 8, 8]               0
        MaxPool2d-75            [-1, 483, 5, 5]               0
        AvgPool2d-76            [-1, 483, 3, 3]               0
        MaxPool2d-77            [-1, 483, 2, 2]               0
        AvgPool2d-78            [-1, 483, 2, 2]               0
           Conv2d-79            [-1, 415, 4, 4]       1,804,420
      BatchNorm2d-80            [-1, 415, 4, 4]             830
             ReLU-81            [-1, 415, 4, 4]               0
      SkipConnect-82            [-1, 415, 4, 4]               0
           Conv2d-83            [-1, 225, 6, 6]         840,600
      BatchNorm2d-84            [-1, 225, 6, 6]             450
             ReLU-85            [-1, 225, 6, 6]               0
      SkipConnect-86            [-1, 225, 6, 6]               0
        AvgPool2d-87            [-1, 225, 4, 4]               0
        AvgPool2d-88            [-1, 225, 3, 3]               0
           Conv2d-89            [-1, 179, 5, 5]         362,654
      BatchNorm2d-90            [-1, 179, 5, 5]             358
             ReLU-91            [-1, 179, 5, 5]               0
      SkipConnect-92            [-1, 179, 5, 5]               0
           Conv2d-93             [-1, 10, 7, 7]          16,120
      BatchNorm2d-94             [-1, 10, 7, 7]              20
             ReLU-95             [-1, 10, 7, 7]               0
      SkipConnect-96             [-1, 10, 7, 7]               0
        AvgPool2d-97             [-1, 10, 4, 4]               0
        AvgPool2d-98             [-1, 10, 3, 3]               0
        MaxPool2d-99             [-1, 10, 2, 2]               0
          Conv2d-100             [-1, 47, 4, 4]           4,277
     BatchNorm2d-101             [-1, 47, 4, 4]              94
            ReLU-102             [-1, 47, 4, 4]               0
     SkipConnect-103             [-1, 47, 4, 4]               0
          Conv2d-104            [-1, 285, 6, 6]         120,840
     BatchNorm2d-105            [-1, 285, 6, 6]             570
            ReLU-106            [-1, 285, 6, 6]               0
     SkipConnect-107            [-1, 285, 6, 6]               0
       MaxPool2d-108            [-1, 285, 4, 4]               0
          Conv2d-109            [-1, 429, 6, 6]       1,100,814
     BatchNorm2d-110            [-1, 429, 6, 6]             858
            ReLU-111            [-1, 429, 6, 6]               0
     SkipConnect-112            [-1, 429, 6, 6]               0
          Conv2d-113            [-1, 186, 8, 8]         718,332
     BatchNorm2d-114            [-1, 186, 8, 8]             372
            ReLU-115            [-1, 186, 8, 8]               0
     SkipConnect-116            [-1, 186, 8, 8]               0
       MaxPool2d-117            [-1, 186, 5, 5]               0
          Conv2d-118            [-1, 309, 7, 7]         517,575
     BatchNorm2d-119            [-1, 309, 7, 7]             618
            ReLU-120            [-1, 309, 7, 7]               0
     SkipConnect-121            [-1, 309, 7, 7]               0
          Conv2d-122            [-1, 297, 9, 9]         826,254
     BatchNorm2d-123            [-1, 297, 9, 9]             594
            ReLU-124            [-1, 297, 9, 9]               0
     SkipConnect-125            [-1, 297, 9, 9]               0
       MaxPool2d-126            [-1, 297, 5, 5]               0
================================================================
Total params: 14,239,965
Trainable params: 14,239,965
Non-trainable params: 0
----------------------------------------------------------------
Input size (MB): 0.01
Forward/backward pass size (MB): 36.95
Params size (MB): 54.32
Estimated Total Size (MB): 91.28
----------------------------------------------------------------
Epoch:  1
Epoch: 1 of 3	Acc: 23.4375	Loss: 148.91
Epoch:  2
Epoch: 2 of 3	Acc: 26.5625	Loss: 147.92
Epoch:  3
Epoch: 3 of 3	Acc: 25.0	Loss: 147.7
----------------------------------------------------------------
        Layer (type)               Output Shape         Param #
================================================================
            Conv2d-1           [-1, 16, 34, 34]             448
       BatchNorm2d-2           [-1, 16, 34, 34]              32
              ReLU-3           [-1, 16, 34, 34]               0
       SkipConnect-4           [-1, 16, 34, 34]               0
         AvgPool2d-5           [-1, 16, 18, 18]               0
         AvgPool2d-6           [-1, 16, 10, 10]               0
         MaxPool2d-7             [-1, 16, 6, 6]               0
            Conv2d-8            [-1, 139, 8, 8]          20,155
       BatchNorm2d-9            [-1, 139, 8, 8]             278
             ReLU-10            [-1, 139, 8, 8]               0
      SkipConnect-11            [-1, 139, 8, 8]               0
           Conv2d-12           [-1, 22, 10, 10]          27,544
      BatchNorm2d-13           [-1, 22, 10, 10]              44
             ReLU-14           [-1, 22, 10, 10]               0
      SkipConnect-15           [-1, 22, 10, 10]               0
           Conv2d-16          [-1, 212, 12, 12]          42,188
      BatchNorm2d-17          [-1, 212, 12, 12]             424
             ReLU-18          [-1, 212, 12, 12]               0
      SkipConnect-19          [-1, 212, 12, 12]               0
           Conv2d-20          [-1, 212, 14, 14]         404,708
      BatchNorm2d-21          [-1, 212, 14, 14]             424
             ReLU-22          [-1, 212, 14, 14]               0
      SkipConnect-23          [-1, 212, 14, 14]               0
           Conv2d-24          [-1, 107, 16, 16]         204,263
      BatchNorm2d-25          [-1, 107, 16, 16]             214
             ReLU-26          [-1, 107, 16, 16]               0
      SkipConnect-27          [-1, 107, 16, 16]               0
           Conv2d-28           [-1, 54, 18, 18]          52,056
      BatchNorm2d-29           [-1, 54, 18, 18]             108
             ReLU-30           [-1, 54, 18, 18]               0
      SkipConnect-31           [-1, 54, 18, 18]               0
           Conv2d-32           [-1, 47, 20, 20]          22,889
      BatchNorm2d-33           [-1, 47, 20, 20]              94
             ReLU-34           [-1, 47, 20, 20]               0
      SkipConnect-35           [-1, 47, 20, 20]               0
           Conv2d-36           [-1, 81, 22, 22]          34,344
      BatchNorm2d-37           [-1, 81, 22, 22]             162
             ReLU-38           [-1, 81, 22, 22]               0
      SkipConnect-39           [-1, 81, 22, 22]               0
           Conv2d-40            [-1, 4, 24, 24]           2,920
      BatchNorm2d-41            [-1, 4, 24, 24]               8
             ReLU-42            [-1, 4, 24, 24]               0
      SkipConnect-43            [-1, 4, 24, 24]               0
           Conv2d-44          [-1, 144, 26, 26]           5,328
      BatchNorm2d-45          [-1, 144, 26, 26]             288
             ReLU-46          [-1, 144, 26, 26]               0
      SkipConnect-47          [-1, 144, 26, 26]               0
           Conv2d-48           [-1, 69, 28, 28]          89,493
      BatchNorm2d-49           [-1, 69, 28, 28]             138
             ReLU-50           [-1, 69, 28, 28]               0
      SkipConnect-51           [-1, 69, 28, 28]               0
           Conv2d-52          [-1, 198, 30, 30]         123,156
      BatchNorm2d-53          [-1, 198, 30, 30]             396
             ReLU-54          [-1, 198, 30, 30]               0
      SkipConnect-55          [-1, 198, 30, 30]               0
           Conv2d-56          [-1, 245, 32, 32]         436,835
      BatchNorm2d-57          [-1, 245, 32, 32]             490
             ReLU-58          [-1, 245, 32, 32]               0
      SkipConnect-59          [-1, 245, 32, 32]               0
           Conv2d-60          [-1, 341, 34, 34]         752,246
      BatchNorm2d-61          [-1, 341, 34, 34]             682
             ReLU-62          [-1, 341, 34, 34]               0
      SkipConnect-63          [-1, 341, 34, 34]               0
        MaxPool2d-64          [-1, 341, 18, 18]               0
        AvgPool2d-65          [-1, 341, 10, 10]               0
           Conv2d-66          [-1, 439, 12, 12]       1,347,730
      BatchNorm2d-67          [-1, 439, 12, 12]             878
             ReLU-68          [-1, 439, 12, 12]               0
      SkipConnect-69          [-1, 439, 12, 12]               0
           Conv2d-70          [-1, 267, 14, 14]       1,055,184
      BatchNorm2d-71          [-1, 267, 14, 14]             534
             ReLU-72          [-1, 267, 14, 14]               0
      SkipConnect-73          [-1, 267, 14, 14]               0
           Conv2d-74          [-1, 458, 16, 16]       1,101,032
      BatchNorm2d-75          [-1, 458, 16, 16]             916
             ReLU-76          [-1, 458, 16, 16]               0
      SkipConnect-77          [-1, 458, 16, 16]               0
           Conv2d-78          [-1, 133, 18, 18]         548,359
      BatchNorm2d-79          [-1, 133, 18, 18]             266
             ReLU-80          [-1, 133, 18, 18]               0
      SkipConnect-81          [-1, 133, 18, 18]               0
        MaxPool2d-82          [-1, 133, 10, 10]               0
        AvgPool2d-83            [-1, 133, 6, 6]               0
        MaxPool2d-84            [-1, 133, 4, 4]               0
        AvgPool2d-85            [-1, 133, 3, 3]               0
        AvgPool2d-86            [-1, 133, 2, 2]               0
           Conv2d-87            [-1, 301, 4, 4]         360,598
      BatchNorm2d-88            [-1, 301, 4, 4]             602
             ReLU-89            [-1, 301, 4, 4]               0
      SkipConnect-90            [-1, 301, 4, 4]               0
           Conv2d-91             [-1, 29, 6, 6]          78,590
      BatchNorm2d-92             [-1, 29, 6, 6]              58
             ReLU-93             [-1, 29, 6, 6]               0
      SkipConnect-94             [-1, 29, 6, 6]               0
        AvgPool2d-95             [-1, 29, 4, 4]               0
           Conv2d-96            [-1, 215, 6, 6]          56,330
      BatchNorm2d-97            [-1, 215, 6, 6]             430
             ReLU-98            [-1, 215, 6, 6]               0
      SkipConnect-99            [-1, 215, 6, 6]               0
          Conv2d-100             [-1, 84, 8, 8]         162,624
     BatchNorm2d-101             [-1, 84, 8, 8]             168
            ReLU-102             [-1, 84, 8, 8]               0
     SkipConnect-103             [-1, 84, 8, 8]               0
          Conv2d-104          [-1, 193, 10, 10]         146,101
     BatchNorm2d-105          [-1, 193, 10, 10]             386
            ReLU-106          [-1, 193, 10, 10]               0
     SkipConnect-107          [-1, 193, 10, 10]               0
          Conv2d-108          [-1, 253, 12, 12]         439,714
     BatchNorm2d-109          [-1, 253, 12, 12]             506
            ReLU-110          [-1, 253, 12, 12]               0
     SkipConnect-111          [-1, 253, 12, 12]               0
          Conv2d-112          [-1, 433, 14, 14]         986,374
     BatchNorm2d-113          [-1, 433, 14, 14]             866
            ReLU-114          [-1, 433, 14, 14]               0
     SkipConnect-115          [-1, 433, 14, 14]               0
          Conv2d-116          [-1, 237, 16, 16]         923,826
     BatchNorm2d-117          [-1, 237, 16, 16]             474
            ReLU-118          [-1, 237, 16, 16]               0
     SkipConnect-119          [-1, 237, 16, 16]               0
       MaxPool2d-120            [-1, 237, 9, 9]               0
          Conv2d-121           [-1, 97, 11, 11]         206,998
     BatchNorm2d-122           [-1, 97, 11, 11]             194
            ReLU-123           [-1, 97, 11, 11]               0
     SkipConnect-124           [-1, 97, 11, 11]               0
          Conv2d-125          [-1, 415, 13, 13]         362,710
     BatchNorm2d-126          [-1, 415, 13, 13]             830
            ReLU-127          [-1, 415, 13, 13]               0
     SkipConnect-128          [-1, 415, 13, 13]               0
       MaxPool2d-129            [-1, 415, 7, 7]               0
       MaxPool2d-130            [-1, 415, 4, 4]               0
       AvgPool2d-131            [-1, 415, 3, 3]               0
================================================================
Total params: 10,005,633
Trainable params: 10,005,633
Non-trainable params: 0
----------------------------------------------------------------
Input size (MB): 0.01
Forward/backward pass size (MB): 55.41
Params size (MB): 38.17
Estimated Total Size (MB): 93.59
----------------------------------------------------------------
Epoch:  1
Epoch: 1 of 3	Acc: 26.5625	Loss: 147.74
Epoch:  2
Epoch: 2 of 3	Acc: 26.5625	Loss: 147.56
Epoch:  3
Epoch: 3 of 3	Acc: 23.4375	Loss: 147.55
----------------------------------------------------------------
        Layer (type)               Output Shape         Param #
================================================================
            Conv2d-1           [-1, 16, 34, 34]             448
       BatchNorm2d-2           [-1, 16, 34, 34]              32
              ReLU-3           [-1, 16, 34, 34]               0
       SkipConnect-4           [-1, 16, 34, 34]               0
         MaxPool2d-5           [-1, 16, 18, 18]               0
            Conv2d-6          [-1, 358, 20, 20]          51,910
       BatchNorm2d-7          [-1, 358, 20, 20]             716
              ReLU-8          [-1, 358, 20, 20]               0
       SkipConnect-9          [-1, 358, 20, 20]               0
           Conv2d-10          [-1, 494, 22, 22]       1,592,162
      BatchNorm2d-11          [-1, 494, 22, 22]             988
             ReLU-12          [-1, 494, 22, 22]               0
      SkipConnect-13          [-1, 494, 22, 22]               0
        MaxPool2d-14          [-1, 494, 12, 12]               0
           Conv2d-15          [-1, 214, 14, 14]         951,658
      BatchNorm2d-16          [-1, 214, 14, 14]             428
             ReLU-17          [-1, 214, 14, 14]               0
      SkipConnect-18          [-1, 214, 14, 14]               0
           Conv2d-19          [-1, 252, 16, 16]         485,604
      BatchNorm2d-20          [-1, 252, 16, 16]             504
             ReLU-21          [-1, 252, 16, 16]               0
      SkipConnect-22          [-1, 252, 16, 16]               0
           Conv2d-23          [-1, 298, 18, 18]         676,162
      BatchNorm2d-24          [-1, 298, 18, 18]             596
             ReLU-25          [-1, 298, 18, 18]               0
      SkipConnect-26          [-1, 298, 18, 18]               0
           Conv2d-27           [-1, 19, 20, 20]          50,977
      BatchNorm2d-28           [-1, 19, 20, 20]              38
             ReLU-29           [-1, 19, 20, 20]               0
      SkipConnect-30           [-1, 19, 20, 20]               0
        MaxPool2d-31           [-1, 19, 11, 11]               0
        AvgPool2d-32             [-1, 19, 6, 6]               0
        AvgPool2d-33             [-1, 19, 4, 4]               0
           Conv2d-34              [-1, 4, 6, 6]             688
      BatchNorm2d-35              [-1, 4, 6, 6]               8
             ReLU-36              [-1, 4, 6, 6]               0
      SkipConnect-37              [-1, 4, 6, 6]               0
           Conv2d-38            [-1, 144, 8, 8]           5,328
      BatchNorm2d-39            [-1, 144, 8, 8]             288
             ReLU-40            [-1, 144, 8, 8]               0
      SkipConnect-41            [-1, 144, 8, 8]               0
           Conv2d-42           [-1, 69, 10, 10]          89,493
      BatchNorm2d-43           [-1, 69, 10, 10]             138
             ReLU-44           [-1, 69, 10, 10]               0
      SkipConnect-45           [-1, 69, 10, 10]               0
           Conv2d-46          [-1, 198, 12, 12]         123,156
      BatchNorm2d-47          [-1, 198, 12, 12]             396
             ReLU-48          [-1, 198, 12, 12]               0
      SkipConnect-49          [-1, 198, 12, 12]               0
           Conv2d-50          [-1, 245, 14, 14]         436,835
      BatchNorm2d-51          [-1, 245, 14, 14]             490
             ReLU-52          [-1, 245, 14, 14]               0
      SkipConnect-53          [-1, 245, 14, 14]               0
           Conv2d-54          [-1, 341, 16, 16]         752,246
      BatchNorm2d-55          [-1, 341, 16, 16]             682
             ReLU-56          [-1, 341, 16, 16]               0
      SkipConnect-57          [-1, 341, 16, 16]               0
        MaxPool2d-58            [-1, 341, 9, 9]               0
        AvgPool2d-59            [-1, 341, 5, 5]               0
           Conv2d-60            [-1, 439, 7, 7]       1,347,730
      BatchNorm2d-61            [-1, 439, 7, 7]             878
             ReLU-62            [-1, 439, 7, 7]               0
      SkipConnect-63            [-1, 439, 7, 7]               0
           Conv2d-64            [-1, 267, 9, 9]       1,055,184
      BatchNorm2d-65            [-1, 267, 9, 9]             534
             ReLU-66            [-1, 267, 9, 9]               0
      SkipConnect-67            [-1, 267, 9, 9]               0
           Conv2d-68          [-1, 458, 11, 11]       1,101,032
      BatchNorm2d-69          [-1, 458, 11, 11]             916
             ReLU-70          [-1, 458, 11, 11]               0
      SkipConnect-71          [-1, 458, 11, 11]               0
           Conv2d-72          [-1, 133, 13, 13]         548,359
      BatchNorm2d-73          [-1, 133, 13, 13]             266
             ReLU-74          [-1, 133, 13, 13]               0
      SkipConnect-75          [-1, 133, 13, 13]               0
        MaxPool2d-76            [-1, 133, 7, 7]               0
        AvgPool2d-77            [-1, 133, 4, 4]               0
        MaxPool2d-78            [-1, 133, 3, 3]               0
        AvgPool2d-79            [-1, 133, 2, 2]               0
        AvgPool2d-80            [-1, 133, 2, 2]               0
           Conv2d-81            [-1, 301, 4, 4]         360,598
      BatchNorm2d-82            [-1, 301, 4, 4]             602
             ReLU-83            [-1, 301, 4, 4]               0
      SkipConnect-84            [-1, 301, 4, 4]               0
           Conv2d-85             [-1, 29, 6, 6]          78,590
      BatchNorm2d-86             [-1, 29, 6, 6]              58
             ReLU-87             [-1, 29, 6, 6]               0
      SkipConnect-88             [-1, 29, 6, 6]               0
        AvgPool2d-89             [-1, 29, 4, 4]               0
           Conv2d-90            [-1, 215, 6, 6]          56,330
      BatchNorm2d-91            [-1, 215, 6, 6]             430
             ReLU-92            [-1, 215, 6, 6]               0
      SkipConnect-93            [-1, 215, 6, 6]               0
           Conv2d-94             [-1, 84, 8, 8]         162,624
      BatchNorm2d-95             [-1, 84, 8, 8]             168
             ReLU-96             [-1, 84, 8, 8]               0
      SkipConnect-97             [-1, 84, 8, 8]               0
           Conv2d-98          [-1, 193, 10, 10]         146,101
      BatchNorm2d-99          [-1, 193, 10, 10]             386
            ReLU-100          [-1, 193, 10, 10]               0
     SkipConnect-101          [-1, 193, 10, 10]               0
          Conv2d-102          [-1, 253, 12, 12]         439,714
     BatchNorm2d-103          [-1, 253, 12, 12]             506
            ReLU-104          [-1, 253, 12, 12]               0
     SkipConnect-105          [-1, 253, 12, 12]               0
          Conv2d-106          [-1, 433, 14, 14]         986,374
     BatchNorm2d-107          [-1, 433, 14, 14]             866
            ReLU-108          [-1, 433, 14, 14]               0
     SkipConnect-109          [-1, 433, 14, 14]               0
          Conv2d-110          [-1, 237, 16, 16]         923,826
     BatchNorm2d-111          [-1, 237, 16, 16]             474
            ReLU-112          [-1, 237, 16, 16]               0
     SkipConnect-113          [-1, 237, 16, 16]               0
       MaxPool2d-114            [-1, 237, 9, 9]               0
          Conv2d-115           [-1, 97, 11, 11]         206,998
     BatchNorm2d-116           [-1, 97, 11, 11]             194
            ReLU-117           [-1, 97, 11, 11]               0
     SkipConnect-118           [-1, 97, 11, 11]               0
          Conv2d-119          [-1, 415, 13, 13]         362,710
     BatchNorm2d-120          [-1, 415, 13, 13]             830
            ReLU-121          [-1, 415, 13, 13]               0
     SkipConnect-122          [-1, 415, 13, 13]               0
       MaxPool2d-123            [-1, 415, 7, 7]               0
       MaxPool2d-124            [-1, 415, 4, 4]               0
       AvgPool2d-125            [-1, 415, 3, 3]               0
================================================================
Total params: 13,005,249
Trainable params: 13,005,249
Non-trainable params: 0
----------------------------------------------------------------
Input size (MB): 0.01
Forward/backward pass size (MB): 38.42
Params size (MB): 49.61
Estimated Total Size (MB): 88.04
----------------------------------------------------------------
Epoch:  1
Epoch: 1 of 3	Acc: 25.0	Loss: 147.81
Epoch:  2
Epoch: 2 of 3	Acc: 21.875	Loss: 147.6
Epoch:  3
Epoch: 3 of 3	Acc: 26.5625	Loss: 147.52
----------------------------------------------------------------
…
      SkipConnect-28            [-1, 387, 9, 9]               0
           Conv2d-29          [-1, 155, 11, 11]         540,020
      BatchNorm2d-30          [-1, 155, 11, 11]             310
             ReLU-31          [-1, 155, 11, 11]               0
      SkipConnect-32          [-1, 155, 11, 11]               0
           Conv2d-33           [-1, 90, 13, 13]         125,640
      BatchNorm2d-34           [-1, 90, 13, 13]             180
             ReLU-35           [-1, 90, 13, 13]               0
      SkipConnect-36           [-1, 90, 13, 13]               0
           Conv2d-37          [-1, 241, 15, 15]         195,451
      BatchNorm2d-38          [-1, 241, 15, 15]             482
             ReLU-39          [-1, 241, 15, 15]               0
      SkipConnect-40          [-1, 241, 15, 15]               0
           Conv2d-41          [-1, 474, 17, 17]       1,028,580
      BatchNorm2d-42          [-1, 474, 17, 17]             948
             ReLU-43          [-1, 474, 17, 17]               0
      SkipConnect-44          [-1, 474, 17, 17]               0
           Conv2d-45          [-1, 324, 19, 19]       1,382,508
      BatchNorm2d-46          [-1, 324, 19, 19]             648
             ReLU-47          [-1, 324, 19, 19]               0
      SkipConnect-48          [-1, 324, 19, 19]               0
           Conv2d-49          [-1, 257, 21, 21]         749,669
      BatchNorm2d-50          [-1, 257, 21, 21]             514
             ReLU-51          [-1, 257, 21, 21]               0
      SkipConnect-52          [-1, 257, 21, 21]               0
           Conv2d-53          [-1, 203, 23, 23]         469,742
      BatchNorm2d-54          [-1, 203, 23, 23]             406
             ReLU-55          [-1, 203, 23, 23]               0
      SkipConnect-56          [-1, 203, 23, 23]               0
           Conv2d-57          [-1, 234, 25, 25]         427,752
      BatchNorm2d-58          [-1, 234, 25, 25]             468
             ReLU-59          [-1, 234, 25, 25]               0
      SkipConnect-60          [-1, 234, 25, 25]               0
           Conv2d-61          [-1, 435, 27, 27]         916,545
      BatchNorm2d-62          [-1, 435, 27, 27]             870
             ReLU-63          [-1, 435, 27, 27]               0
      SkipConnect-64          [-1, 435, 27, 27]               0
           Conv2d-65          [-1, 460, 29, 29]       1,801,360
      BatchNorm2d-66          [-1, 460, 29, 29]             920
             ReLU-67          [-1, 460, 29, 29]               0
      SkipConnect-68          [-1, 460, 29, 29]               0
           Conv2d-69           [-1, 49, 31, 31]         202,909
      BatchNorm2d-70           [-1, 49, 31, 31]              98
             ReLU-71           [-1, 49, 31, 31]               0
      SkipConnect-72           [-1, 49, 31, 31]               0
           Conv2d-73          [-1, 159, 33, 33]          70,278
      BatchNorm2d-74          [-1, 159, 33, 33]             318
             ReLU-75          [-1, 159, 33, 33]               0
      SkipConnect-76          [-1, 159, 33, 33]               0
           Conv2d-77          [-1, 246, 35, 35]         352,272
      BatchNorm2d-78          [-1, 246, 35, 35]             492
             ReLU-79          [-1, 246, 35, 35]               0
      SkipConnect-80          [-1, 246, 35, 35]               0
        MaxPool2d-81          [-1, 246, 18, 18]               0
           Conv2d-82           [-1, 88, 20, 20]         194,920
      BatchNorm2d-83           [-1, 88, 20, 20]             176
             ReLU-84           [-1, 88, 20, 20]               0
      SkipConnect-85           [-1, 88, 20, 20]               0
           Conv2d-86          [-1, 250, 22, 22]         198,250
      BatchNorm2d-87          [-1, 250, 22, 22]             500
             ReLU-88          [-1, 250, 22, 22]               0
      SkipConnect-89          [-1, 250, 22, 22]               0
           Conv2d-90           [-1, 36, 24, 24]          81,036
      BatchNorm2d-91           [-1, 36, 24, 24]              72
             ReLU-92           [-1, 36, 24, 24]               0
      SkipConnect-93           [-1, 36, 24, 24]               0
           Conv2d-94          [-1, 285, 26, 26]          92,625
      BatchNorm2d-95          [-1, 285, 26, 26]             570
             ReLU-96          [-1, 285, 26, 26]               0
      SkipConnect-97          [-1, 285, 26, 26]               0
        AvgPool2d-98          [-1, 285, 14, 14]               0
           Conv2d-99          [-1, 450, 16, 16]       1,154,700
     BatchNorm2d-100          [-1, 450, 16, 16]             900
            ReLU-101          [-1, 450, 16, 16]               0
     SkipConnect-102          [-1, 450, 16, 16]               0
          Conv2d-103          [-1, 364, 18, 18]       1,474,564
     BatchNorm2d-104          [-1, 364, 18, 18]             728
            ReLU-105          [-1, 364, 18, 18]               0
     SkipConnect-106          [-1, 364, 18, 18]               0
          Conv2d-107          [-1, 466, 20, 20]       1,527,082
     BatchNorm2d-108          [-1, 466, 20, 20]             932
            ReLU-109          [-1, 466, 20, 20]               0
     SkipConnect-110          [-1, 466, 20, 20]               0
          Conv2d-111          [-1, 171, 22, 22]         717,345
     BatchNorm2d-112          [-1, 171, 22, 22]             342
            ReLU-113          [-1, 171, 22, 22]               0
     SkipConnect-114          [-1, 171, 22, 22]               0
       MaxPool2d-115          [-1, 171, 12, 12]               0
          Conv2d-116          [-1, 491, 14, 14]         756,140
     BatchNorm2d-117          [-1, 491, 14, 14]             982
            ReLU-118          [-1, 491, 14, 14]               0
     SkipConnect-119          [-1, 491, 14, 14]               0
          Conv2d-120          [-1, 403, 16, 16]       1,781,260
     BatchNorm2d-121          [-1, 403, 16, 16]             806
            ReLU-122          [-1, 403, 16, 16]               0
     SkipConnect-123          [-1, 403, 16, 16]               0
          Conv2d-124          [-1, 204, 18, 18]         740,112
     BatchNorm2d-125          [-1, 204, 18, 18]             408
            ReLU-126          [-1, 204, 18, 18]               0
     SkipConnect-127          [-1, 204, 18, 18]               0
          Conv2d-128           [-1, 85, 20, 20]         156,145
     BatchNorm2d-129           [-1, 85, 20, 20]             170
            ReLU-130           [-1, 85, 20, 20]               0
     SkipConnect-131           [-1, 85, 20, 20]               0
          Conv2d-132          [-1, 261, 22, 22]         199,926
     BatchNorm2d-133          [-1, 261, 22, 22]             522
            ReLU-134          [-1, 261, 22, 22]               0
     SkipConnect-135          [-1, 261, 22, 22]               0
          Conv2d-136          [-1, 211, 24, 24]         495,850
     BatchNorm2d-137          [-1, 211, 24, 24]             422
            ReLU-138          [-1, 211, 24, 24]               0
     SkipConnect-139          [-1, 211, 24, 24]               0
       AvgPool2d-140          [-1, 211, 13, 13]               0
       AvgPool2d-141            [-1, 211, 7, 7]               0
          Conv2d-142            [-1, 453, 9, 9]         860,700
     BatchNorm2d-143            [-1, 453, 9, 9]             906
            ReLU-144            [-1, 453, 9, 9]               0
     SkipConnect-145            [-1, 453, 9, 9]               0
          Conv2d-146           [-1, 17, 11, 11]          69,326
     BatchNorm2d-147           [-1, 17, 11, 11]              34
            ReLU-148           [-1, 17, 11, 11]               0
     SkipConnect-149           [-1, 17, 11, 11]               0
          Conv2d-150          [-1, 175, 13, 13]          26,950
     BatchNorm2d-151          [-1, 175, 13, 13]             350
            ReLU-152          [-1, 175, 13, 13]               0
     SkipConnect-153          [-1, 175, 13, 13]               0
          Conv2d-154          [-1, 192, 15, 15]         302,592
     BatchNorm2d-155          [-1, 192, 15, 15]             384
            ReLU-156          [-1, 192, 15, 15]               0
     SkipConnect-157          [-1, 192, 15, 15]               0
          Conv2d-158           [-1, 51, 17, 17]          88,179
     BatchNorm2d-159           [-1, 51, 17, 17]             102
            ReLU-160           [-1, 51, 17, 17]               0
     SkipConnect-161           [-1, 51, 17, 17]               0
          Conv2d-162           [-1, 50, 19, 19]          23,000
     BatchNorm2d-163           [-1, 50, 19, 19]             100
            ReLU-164           [-1, 50, 19, 19]               0
     SkipConnect-165           [-1, 50, 19, 19]               0
       AvgPool2d-166           [-1, 50, 10, 10]               0
       AvgPool2d-167             [-1, 50, 6, 6]               0
          Conv2d-168             [-1, 37, 8, 8]          16,687
     BatchNorm2d-169             [-1, 37, 8, 8]              74
            ReLU-170             [-1, 37, 8, 8]               0
     SkipConnect-171             [-1, 37, 8, 8]               0
          Conv2d-172           [-1, 55, 10, 10]          18,370
     BatchNorm2d-173           [-1, 55, 10, 10]             110
            ReLU-174           [-1, 55, 10, 10]               0
     SkipConnect-175           [-1, 55, 10, 10]               0
================================================================
Total params: 21,169,287
Trainable params: 21,169,287
Non-trainable params: 0
----------------------------------------------------------------
Input size (MB): 0.01
Forward/backward pass size (MB): 114.48
Params size (MB): 80.75
Estimated Total Size (MB): 195.24
----------------------------------------------------------------
Epoch:  1
…
 '437-178-0.0-0.5-109-99-104-429-497-366-317-385-0.7-195-423-0.0-250-505-353-161-484-286-92-14-48-339-147-385-0.6-317-27-0.6-0.2-0.3-0.7-204-85-261-211-0.1-0.1-453-17-175-192-51-50-0.4-0.4-37-55': 25.0,
 '449-396-0.2-0.3-0.5-0.9-0.1-0.9-0.1-0.4-0.5-4-144-69-198-245-341-0.6-0.4-439-267-458-133-1.0-0.4-1.0-0.5-0.1-301-505-0.9-121-102-311-253-1.0-0.4-120-405-0.1-0.5-0.7-0.5-27-359-0.6-0.9-0.6': 12.5}
Generation: 37
Files already downloaded and verified
Files already downloaded and verified
----------------------------------------------------------------
        Layer (type)               Output Shape         Param #
================================================================
            Conv2d-1           [-1, 16, 34, 34]             448
       BatchNorm2d-2           [-1, 16, 34, 34]              32
              ReLU-3           [-1, 16, 34, 34]               0
       SkipConnect-4           [-1, 16, 34, 34]               0
         AvgPool2d-5           [-1, 16, 18, 18]               0
         MaxPool2d-6           [-1, 16, 10, 10]               0
            Conv2d-7          [-1, 512, 12, 12]          74,240
       BatchNorm2d-8          [-1, 512, 12, 12]           1,024
              ReLU-9          [-1, 512, 12, 12]               0
      SkipConnect-10          [-1, 512, 12, 12]               0
           Conv2d-11          [-1, 337, 14, 14]       1,553,233
      BatchNorm2d-12          [-1, 337, 14, 14]             674
             ReLU-13          [-1, 337, 14, 14]               0
      SkipConnect-14          [-1, 337, 14, 14]               0
        MaxPool2d-15            [-1, 337, 8, 8]               0
           Conv2d-16          [-1, 463, 10, 10]       1,404,742
      BatchNorm2d-17          [-1, 463, 10, 10]             926
             ReLU-18          [-1, 463, 10, 10]               0
      SkipConnect-19          [-1, 463, 10, 10]               0
           Conv2d-20          [-1, 477, 12, 12]       1,988,136
      BatchNorm2d-21          [-1, 477, 12, 12]             954
             ReLU-22          [-1, 477, 12, 12]               0
      SkipConnect-23          [-1, 477, 12, 12]               0
        AvgPool2d-24            [-1, 477, 7, 7]               0
        MaxPool2d-25            [-1, 477, 4, 4]               0
           Conv2d-26            [-1, 142, 6, 6]         609,748
      BatchNorm2d-27            [-1, 142, 6, 6]             284
             ReLU-28            [-1, 142, 6, 6]               0
      SkipConnect-29            [-1, 142, 6, 6]               0
           Conv2d-30             [-1, 24, 8, 8]          30,696
      BatchNorm2d-31             [-1, 24, 8, 8]              48
             ReLU-32             [-1, 24, 8, 8]               0
      SkipConnect-33             [-1, 24, 8, 8]               0
           Conv2d-34          [-1, 326, 10, 10]          70,742
      BatchNorm2d-35          [-1, 326, 10, 10]             652
             ReLU-36          [-1, 326, 10, 10]               0
      SkipConnect-37          [-1, 326, 10, 10]               0
           Conv2d-38          [-1, 331, 12, 12]         971,485
      BatchNorm2d-39          [-1, 331, 12, 12]             662
             ReLU-40          [-1, 331, 12, 12]               0
      SkipConnect-41          [-1, 331, 12, 12]               0
           Conv2d-42          [-1, 195, 14, 14]         581,100
      BatchNorm2d-43          [-1, 195, 14, 14]             390
             ReLU-44          [-1, 195, 14, 14]               0
      SkipConnect-45          [-1, 195, 14, 14]               0
           Conv2d-46          [-1, 423, 16, 16]         742,788
      BatchNorm2d-47          [-1, 423, 16, 16]             846
             ReLU-48          [-1, 423, 16, 16]               0
      SkipConnect-49          [-1, 423, 16, 16]               0
           Conv2d-50          [-1, 245, 18, 18]         932,960
      BatchNorm2d-51          [-1, 245, 18, 18]             490
             ReLU-52          [-1, 245, 18, 18]               0
      SkipConnect-53          [-1, 245, 18, 18]               0
           Conv2d-54          [-1, 341, 20, 20]         752,246
      BatchNorm2d-55          [-1, 341, 20, 20]             682
             ReLU-56          [-1, 341, 20, 20]               0
      SkipConnect-57          [-1, 341, 20, 20]               0
        MaxPool2d-58          [-1, 341, 11, 11]               0
        AvgPool2d-59            [-1, 341, 6, 6]               0
           Conv2d-60            [-1, 439, 8, 8]       1,347,730
      BatchNorm2d-61            [-1, 439, 8, 8]             878
             ReLU-62            [-1, 439, 8, 8]               0
      SkipConnect-63            [-1, 439, 8, 8]               0
           Conv2d-64          [-1, 267, 10, 10]       1,055,184
      BatchNorm2d-65          [-1, 267, 10, 10]             534
             ReLU-66          [-1, 267, 10, 10]               0
      SkipConnect-67          [-1, 267, 10, 10]               0
           Conv2d-68          [-1, 458, 12, 12]       1,101,032
      BatchNorm2d-69          [-1, 458, 12, 12]             916
             ReLU-70          [-1, 458, 12, 12]               0
      SkipConnect-71          [-1, 458, 12, 12]               0
           Conv2d-72          [-1, 133, 14, 14]         548,359
      BatchNorm2d-73          [-1, 133, 14, 14]             266
             ReLU-74          [-1, 133, 14, 14]               0
      SkipConnect-75          [-1, 133, 14, 14]               0
        MaxPool2d-76            [-1, 133, 8, 8]               0
        AvgPool2d-77            [-1, 133, 5, 5]               0
        MaxPool2d-78            [-1, 133, 3, 3]               0
        AvgPool2d-79            [-1, 133, 2, 2]               0
        AvgPool2d-80            [-1, 133, 2, 2]               0
           Conv2d-81            [-1, 301, 4, 4]         360,598
      BatchNorm2d-82            [-1, 301, 4, 4]             602
             ReLU-83            [-1, 301, 4, 4]               0
      SkipConnect-84            [-1, 301, 4, 4]               0
           Conv2d-85             [-1, 29, 6, 6]          78,590
      BatchNorm2d-86             [-1, 29, 6, 6]              58
             ReLU-87             [-1, 29, 6, 6]               0
      SkipConnect-88             [-1, 29, 6, 6]               0
        AvgPool2d-89             [-1, 29, 4, 4]               0
           Conv2d-90            [-1, 215, 6, 6]          56,330
      BatchNorm2d-91            [-1, 215, 6, 6]             430
             ReLU-92            [-1, 215, 6, 6]               0
      SkipConnect-93            [-1, 215, 6, 6]               0
           Conv2d-94             [-1, 84, 8, 8]         162,624
      BatchNorm2d-95             [-1, 84, 8, 8]             168
             ReLU-96             [-1, 84, 8, 8]               0
      SkipConnect-97             [-1, 84, 8, 8]               0
        MaxPool2d-98             [-1, 84, 5, 5]               0
        AvgPool2d-99             [-1, 84, 3, 3]               0
       MaxPool2d-100             [-1, 84, 2, 2]               0
          Conv2d-101            [-1, 314, 4, 4]         237,698
     BatchNorm2d-102            [-1, 314, 4, 4]             628
            ReLU-103            [-1, 314, 4, 4]               0
     SkipConnect-104            [-1, 314, 4, 4]               0
          Conv2d-105            [-1, 370, 6, 6]       1,045,990
     BatchNorm2d-106            [-1, 370, 6, 6]             740
            ReLU-107            [-1, 370, 6, 6]               0
     SkipConnect-108            [-1, 370, 6, 6]               0
          Conv2d-109             [-1, 97, 8, 8]         323,107
     BatchNorm2d-110             [-1, 97, 8, 8]             194
            ReLU-111             [-1, 97, 8, 8]               0
     SkipConnect-112             [-1, 97, 8, 8]               0
          Conv2d-113          [-1, 415, 10, 10]         362,710
     BatchNorm2d-114          [-1, 415, 10, 10]             830
            ReLU-115          [-1, 415, 10, 10]               0
     SkipConnect-116          [-1, 415, 10, 10]               0
       MaxPool2d-117            [-1, 415, 6, 6]               0
       MaxPool2d-118            [-1, 415, 4, 4]               0
       AvgPool2d-119            [-1, 415, 3, 3]               0
================================================================
Total params: 16,406,424
Trainable params: 16,406,424
Non-trainable params: 0
----------------------------------------------------------------
Input size (MB): 0.01
Forward/backward pass size (MB): 30.31
Params size (MB): 62.59
Estimated Total Size (MB): 92.91
----------------------------------------------------------------
Epoch:  1
…
Epoch: 3 of 10	Acc: 25.0	Loss: 147.47
Epoch:  4
Epoch: 4 of 10	Acc: 23.4375	Loss: 147.47
Epoch:  5
Epoch: 5 of 10	Acc: 25.0	Loss: 147.42
Epoch:  6
Epoch: 6 of 10	Acc: 21.875	Loss: 147.4
Epoch:  7
Epoch: 7 of 10	Acc: 25.0	Loss: 147.4
Epoch:  8
Epoch: 8 of 10	Acc: 21.875	Loss: 147.33
Epoch:  9
Epoch: 9 of 10	Acc: 25.0	Loss: 147.35
Epoch:  10
Epoch: 10 of 10	Acc: 21.875	Loss: 147.34
----------------------------------------------------------------
        Layer (type)               Output Shape         Param #
================================================================
            Conv2d-1           [-1, 16, 34, 34]             448
       BatchNorm2d-2           [-1, 16, 34, 34]              32
              ReLU-3           [-1, 16, 34, 34]               0
       SkipConnect-4           [-1, 16, 34, 34]               0
         AvgPool2d-5           [-1, 16, 18, 18]               0
         AvgPool2d-6           [-1, 16, 10, 10]               0
         MaxPool2d-7             [-1, 16, 6, 6]               0
            Conv2d-8            [-1, 139, 8, 8]          20,155
       BatchNorm2d-9            [-1, 139, 8, 8]             278
             ReLU-10            [-1, 139, 8, 8]               0
      SkipConnect-11            [-1, 139, 8, 8]               0
           Conv2d-12           [-1, 22, 10, 10]          27,544
      BatchNorm2d-13           [-1, 22, 10, 10]              44
             ReLU-14           [-1, 22, 10, 10]               0
      SkipConnect-15           [-1, 22, 10, 10]               0
           Conv2d-16          [-1, 212, 12, 12]          42,188
      BatchNorm2d-17          [-1, 212, 12, 12]             424
             ReLU-18          [-1, 212, 12, 12]               0
      SkipConnect-19          [-1, 212, 12, 12]               0
           Conv2d-20          [-1, 212, 14, 14]         404,708
      BatchNorm2d-21          [-1, 212, 14, 14]             424
             ReLU-22          [-1, 212, 14, 14]               0
      SkipConnect-23          [-1, 212, 14, 14]               0
           Conv2d-24          [-1, 107, 16, 16]         204,263
      BatchNorm2d-25          [-1, 107, 16, 16]             214
             ReLU-26          [-1, 107, 16, 16]               0
      SkipConnect-27          [-1, 107, 16, 16]               0
           Conv2d-28           [-1, 54, 18, 18]          52,056
      BatchNorm2d-29           [-1, 54, 18, 18]             108
             ReLU-30           [-1, 54, 18, 18]               0
      SkipConnect-31           [-1, 54, 18, 18]               0
           Conv2d-32           [-1, 47, 20, 20]          22,889
      BatchNorm2d-33           [-1, 47, 20, 20]              94
             ReLU-34           [-1, 47, 20, 20]               0
      SkipConnect-35           [-1, 47, 20, 20]               0
           Conv2d-36           [-1, 81, 22, 22]          34,344
      BatchNorm2d-37           [-1, 81, 22, 22]             162
             ReLU-38           [-1, 81, 22, 22]               0
      SkipConnect-39           [-1, 81, 22, 22]               0
        MaxPool2d-40           [-1, 81, 12, 12]               0
        AvgPool2d-41             [-1, 81, 7, 7]               0
           Conv2d-42             [-1, 20, 9, 9]          14,600
      BatchNorm2d-43             [-1, 20, 9, 9]              40
             ReLU-44             [-1, 20, 9, 9]               0
      SkipConnect-45             [-1, 20, 9, 9]               0
           Conv2d-46          [-1, 456, 11, 11]          82,536
      BatchNorm2d-47          [-1, 456, 11, 11]             912
             ReLU-48          [-1, 456, 11, 11]               0
      SkipConnect-49          [-1, 456, 11, 11]               0
        AvgPool2d-50            [-1, 456, 6, 6]               0
           Conv2d-51             [-1, 67, 8, 8]         275,035
      BatchNorm2d-52             [-1, 67, 8, 8]             134
             ReLU-53             [-1, 67, 8, 8]               0
      SkipConnect-54             [-1, 67, 8, 8]               0
           Conv2d-55          [-1, 435, 10, 10]         262,740
      BatchNorm2d-56          [-1, 435, 10, 10]             870
             ReLU-57          [-1, 435, 10, 10]               0
      SkipConnect-58          [-1, 435, 10, 10]               0
           Conv2d-59          [-1, 460, 12, 12]       1,801,360
      BatchNorm2d-60          [-1, 460, 12, 12]             920
             ReLU-61          [-1, 460, 12, 12]               0
      SkipConnect-62          [-1, 460, 12, 12]               0
           Conv2d-63           [-1, 49, 14, 14]         202,909
      BatchNorm2d-64           [-1, 49, 14, 14]              98
             ReLU-65           [-1, 49, 14, 14]               0
      SkipConnect-66           [-1, 49, 14, 14]               0
        MaxPool2d-67             [-1, 49, 8, 8]               0
           Conv2d-68          [-1, 151, 10, 10]          66,742
      BatchNorm2d-69          [-1, 151, 10, 10]             302
             ReLU-70          [-1, 151, 10, 10]               0
      SkipConnect-71          [-1, 151, 10, 10]               0
           Conv2d-72          [-1, 127, 12, 12]         172,720
      BatchNorm2d-73          [-1, 127, 12, 12]             254
             ReLU-74          [-1, 127, 12, 12]               0
      SkipConnect-75          [-1, 127, 12, 12]               0
           Conv2d-76          [-1, 388, 14, 14]         443,872
      BatchNorm2d-77          [-1, 388, 14, 14]             776
             ReLU-78          [-1, 388, 14, 14]               0
      SkipConnect-79          [-1, 388, 14, 14]               0
           Conv2d-80           [-1, 20, 16, 16]          69,860
      BatchNorm2d-81           [-1, 20, 16, 16]              40
             ReLU-82           [-1, 20, 16, 16]               0
      SkipConnect-83           [-1, 20, 16, 16]               0
        AvgPool2d-84             [-1, 20, 9, 9]               0
           Conv2d-85          [-1, 277, 11, 11]          50,137
      BatchNorm2d-86          [-1, 277, 11, 11]             554
             ReLU-87          [-1, 277, 11, 11]               0
      SkipConnect-88          [-1, 277, 11, 11]               0
           Conv2d-89           [-1, 29, 13, 13]          72,326
      BatchNorm2d-90           [-1, 29, 13, 13]              58
             ReLU-91           [-1, 29, 13, 13]               0
      SkipConnect-92           [-1, 29, 13, 13]               0
           Conv2d-93          [-1, 380, 15, 15]          99,560
      BatchNorm2d-94          [-1, 380, 15, 15]             760
             ReLU-95          [-1, 380, 15, 15]               0
      SkipConnect-96          [-1, 380, 15, 15]               0
           Conv2d-97          [-1, 132, 17, 17]         451,572
      BatchNorm2d-98          [-1, 132, 17, 17]             264
             ReLU-99          [-1, 132, 17, 17]               0
     SkipConnect-100          [-1, 132, 17, 17]               0
          Conv2d-101          [-1, 247, 19, 19]         293,683
     BatchNorm2d-102          [-1, 247, 19, 19]             494
            ReLU-103          [-1, 247, 19, 19]               0
     SkipConnect-104          [-1, 247, 19, 19]               0
          Conv2d-105          [-1, 319, 21, 21]         709,456
     BatchNorm2d-106          [-1, 319, 21, 21]             638
            ReLU-107          [-1, 319, 21, 21]               0
     SkipConnect-108          [-1, 319, 21, 21]               0
       MaxPool2d-109          [-1, 319, 11, 11]               0
          Conv2d-110          [-1, 491, 13, 13]       1,410,152
     BatchNorm2d-111          [-1, 491, 13, 13]             982
            ReLU-112          [-1, 491, 13, 13]               0
     SkipConnect-113          [-1, 491, 13, 13]               0
          Conv2d-114          [-1, 403, 15, 15]       1,781,260
     BatchNorm2d-115          [-1, 403, 15, 15]             806
            ReLU-116          [-1, 403, 15, 15]               0
     SkipConnect-117          [-1, 403, 15, 15]               0
          Conv2d-118          [-1, 204, 17, 17]         740,112
     BatchNorm2d-119          [-1, 204, 17, 17]             408
            ReLU-120          [-1, 204, 17, 17]               0
     SkipConnect-121          [-1, 204, 17, 17]               0
          Conv2d-122           [-1, 85, 19, 19]         156,145
     BatchNorm2d-123           [-1, 85, 19, 19]             170
            ReLU-124           [-1, 85, 19, 19]               0
     SkipConnect-125           [-1, 85, 19, 19]               0
          Conv2d-126          [-1, 261, 21, 21]         199,926
     BatchNorm2d-127          [-1, 261, 21, 21]             522
            ReLU-128          [-1, 261, 21, 21]               0
     SkipConnect-129          [-1, 261, 21, 21]               0
       AvgPool2d-130          [-1, 261, 11, 11]               0
       MaxPool2d-131            [-1, 261, 6, 6]               0
       AvgPool2d-132            [-1, 261, 4, 4]               0
       MaxPool2d-133            [-1, 261, 3, 3]               0
          Conv2d-134             [-1, 65, 5, 5]         152,750
     BatchNorm2d-135             [-1, 65, 5, 5]             130
            ReLU-136             [-1, 65, 5, 5]               0
     SkipConnect-137             [-1, 65, 5, 5]               0
          Conv2d-138            [-1, 451, 7, 7]         264,286
     BatchNorm2d-139            [-1, 451, 7, 7]             902
            ReLU-140            [-1, 451, 7, 7]               0
     SkipConnect-141            [-1, 451, 7, 7]               0
          Conv2d-142            [-1, 271, 9, 9]       1,100,260
     BatchNorm2d-143            [-1, 271, 9, 9]             542
            ReLU-144            [-1, 271, 9, 9]               0
     SkipConnect-145            [-1, 271, 9, 9]               0
          Conv2d-146          [-1, 447, 11, 11]       1,090,680
     BatchNorm2d-147          [-1, 447, 11, 11]             894
            ReLU-148          [-1, 447, 11, 11]               0
     SkipConnect-149          [-1, 447, 11, 11]               0
          Conv2d-150          [-1, 340, 13, 13]       1,368,160
     BatchNorm2d-151          [-1, 340, 13, 13]             680
            ReLU-152          [-1, 340, 13, 13]               0
     SkipConnect-153          [-1, 340, 13, 13]               0
          Conv2d-154          [-1, 281, 15, 15]         860,141
     BatchNorm2d-155          [-1, 281, 15, 15]             562
            ReLU-156          [-1, 281, 15, 15]               0
     SkipConnect-157          [-1, 281, 15, 15]               0
================================================================
Total params: 15,017,067
Trainable params: 15,017,067
Non-trainable params: 0
----------------------------------------------------------------
Input size (MB): 0.01
Forward/backward pass size (MB): 46.47
Params size (MB): 57.29
Estimated Total Size (MB): 103.77
----------------------------------------------------------------
Epoch:  1
…
Epoch: 3 of 10	Acc: 23.4375	Loss: 147.68
Epoch:  4
Epoch: 4 of 10	Acc: 21.875	Loss: 147.52
Epoch:  5
Epoch: 5 of 10	Acc: 21.875	Loss: 147.59
Epoch:  6
Epoch: 6 of 10	Acc: 21.875	Loss: 147.52
Epoch:  7
Epoch: 7 of 10	Acc: 20.3125	Loss: 147.37
Epoch:  8
Epoch: 8 of 10	Acc: 25.0	Loss: 147.34
Epoch:  9
Epoch: 9 of 10	Acc: 23.4375	Loss: 147.32
Epoch:  10
Epoch: 10 of 10	Acc: 23.4375	Loss: 147.29
----------------------------------------------------------------
        Layer (type)               Output Shape         Param #
================================================================
            Conv2d-1           [-1, 16, 34, 34]             448
       BatchNorm2d-2           [-1, 16, 34, 34]              32
              ReLU-3           [-1, 16, 34, 34]               0
       SkipConnect-4           [-1, 16, 34, 34]               0
            Conv2d-5          [-1, 437, 36, 36]          63,365
       BatchNorm2d-6          [-1, 437, 36, 36]             874
              ReLU-7          [-1, 437, 36, 36]               0
       SkipConnect-8          [-1, 437, 36, 36]               0
            Conv2d-9          [-1, 178, 38, 38]         700,252
      BatchNorm2d-10          [-1, 178, 38, 38]             356
             ReLU-11          [-1, 178, 38, 38]               0
      SkipConnect-12          [-1, 178, 38, 38]               0
        AvgPool2d-13          [-1, 178, 20, 20]               0
        AvgPool2d-14          [-1, 178, 11, 11]               0
        AvgPool2d-15            [-1, 178, 6, 6]               0
           Conv2d-16            [-1, 316, 8, 8]         506,548
      BatchNorm2d-17            [-1, 316, 8, 8]             632
             ReLU-18            [-1, 316, 8, 8]               0
      SkipConnect-19            [-1, 316, 8, 8]               0
           Conv2d-20          [-1, 487, 10, 10]       1,385,515
      BatchNorm2d-21          [-1, 487, 10, 10]             974
             ReLU-22          [-1, 487, 10, 10]               0
      SkipConnect-23          [-1, 487, 10, 10]               0
        AvgPool2d-24            [-1, 487, 6, 6]               0
        MaxPool2d-25            [-1, 487, 4, 4]               0
           Conv2d-26            [-1, 142, 6, 6]         622,528
      BatchNorm2d-27            [-1, 142, 6, 6]             284
             ReLU-28            [-1, 142, 6, 6]               0
      SkipConnect-29            [-1, 142, 6, 6]               0
           Conv2d-30             [-1, 24, 8, 8]          30,696
      BatchNorm2d-31             [-1, 24, 8, 8]              48
             ReLU-32             [-1, 24, 8, 8]               0
      SkipConnect-33             [-1, 24, 8, 8]               0
           Conv2d-34          [-1, 326, 10, 10]          70,742
      BatchNorm2d-35          [-1, 326, 10, 10]             652
             ReLU-36          [-1, 326, 10, 10]               0
      SkipConnect-37          [-1, 326, 10, 10]               0
           Conv2d-38          [-1, 331, 12, 12]         971,485
      BatchNorm2d-39          [-1, 331, 12, 12]             662
             ReLU-40          [-1, 331, 12, 12]               0
      SkipConnect-41          [-1, 331, 12, 12]               0
           Conv2d-42          [-1, 328, 14, 14]         977,440
      BatchNorm2d-43          [-1, 328, 14, 14]             656
             ReLU-44          [-1, 328, 14, 14]               0
      SkipConnect-45          [-1, 328, 14, 14]               0
           Conv2d-46          [-1, 401, 16, 16]       1,184,153
      BatchNorm2d-47          [-1, 401, 16, 16]             802
             ReLU-48          [-1, 401, 16, 16]               0
      SkipConnect-49          [-1, 401, 16, 16]               0
           Conv2d-50           [-1, 77, 18, 18]         277,970
      BatchNorm2d-51           [-1, 77, 18, 18]             154
             ReLU-52           [-1, 77, 18, 18]               0
      SkipConnect-53           [-1, 77, 18, 18]               0
           Conv2d-54          [-1, 179, 20, 20]         124,226
      BatchNorm2d-55          [-1, 179, 20, 20]             358
             ReLU-56          [-1, 179, 20, 20]               0
      SkipConnect-57          [-1, 179, 20, 20]               0
        MaxPool2d-58          [-1, 179, 11, 11]               0
           Conv2d-59           [-1, 36, 13, 13]          58,032
      BatchNorm2d-60           [-1, 36, 13, 13]              72
             ReLU-61           [-1, 36, 13, 13]               0
      SkipConnect-62           [-1, 36, 13, 13]               0
           Conv2d-63          [-1, 423, 15, 15]         137,475
      BatchNorm2d-64          [-1, 423, 15, 15]             846
             ReLU-65          [-1, 423, 15, 15]               0
      SkipConnect-66          [-1, 423, 15, 15]               0
           Conv2d-67          [-1, 159, 17, 17]         605,472
      BatchNorm2d-68          [-1, 159, 17, 17]             318
             ReLU-69          [-1, 159, 17, 17]               0
      SkipConnect-70          [-1, 159, 17, 17]               0
           Conv2d-71          [-1, 246, 19, 19]         352,272
      BatchNorm2d-72          [-1, 246, 19, 19]             492
             ReLU-73          [-1, 246, 19, 19]               0
      SkipConnect-74          [-1, 246, 19, 19]               0
        MaxPool2d-75          [-1, 246, 10, 10]               0
           Conv2d-76          [-1, 388, 12, 12]         859,420
      BatchNorm2d-77          [-1, 388, 12, 12]             776
             ReLU-78          [-1, 388, 12, 12]               0
      SkipConnect-79          [-1, 388, 12, 12]               0
           Conv2d-80           [-1, 20, 14, 14]          69,860
      BatchNorm2d-81           [-1, 20, 14, 14]              40
             ReLU-82           [-1, 20, 14, 14]               0
      SkipConnect-83           [-1, 20, 14, 14]               0
        AvgPool2d-84             [-1, 20, 8, 8]               0
           Conv2d-85          [-1, 277, 10, 10]          50,137
      BatchNorm2d-86          [-1, 277, 10, 10]             554
             ReLU-87          [-1, 277, 10, 10]               0
      SkipConnect-88          [-1, 277, 10, 10]               0
        AvgPool2d-89            [-1, 277, 6, 6]               0
           Conv2d-90            [-1, 301, 8, 8]         750,694
      BatchNorm2d-91            [-1, 301, 8, 8]             602
             ReLU-92            [-1, 301, 8, 8]               0
      SkipConnect-93            [-1, 301, 8, 8]               0
           Conv2d-94           [-1, 29, 10, 10]          78,590
      BatchNorm2d-95           [-1, 29, 10, 10]              58
             ReLU-96           [-1, 29, 10, 10]               0
      SkipConnect-97           [-1, 29, 10, 10]               0
        AvgPool2d-98             [-1, 29, 6, 6]               0
           Conv2d-99            [-1, 215, 8, 8]          56,330
     BatchNorm2d-100            [-1, 215, 8, 8]             430
            ReLU-101            [-1, 215, 8, 8]               0
     SkipConnect-102            [-1, 215, 8, 8]               0
          Conv2d-103           [-1, 84, 10, 10]         162,624
     BatchNorm2d-104           [-1, 84, 10, 10]             168
            ReLU-105           [-1, 84, 10, 10]               0
     SkipConnect-106           [-1, 84, 10, 10]               0
          Conv2d-107          [-1, 193, 12, 12]         146,101
     BatchNorm2d-108          [-1, 193, 12, 12]             386
            ReLU-109          [-1, 193, 12, 12]               0
     SkipConnect-110          [-1, 193, 12, 12]               0
          Conv2d-111          [-1, 253, 14, 14]         439,714
     BatchNorm2d-112          [-1, 253, 14, 14]             506
            ReLU-113          [-1, 253, 14, 14]               0
     SkipConnect-114          [-1, 253, 14, 14]               0
          Conv2d-115          [-1, 433, 16, 16]         986,374
     BatchNorm2d-116          [-1, 433, 16, 16]             866
            ReLU-117          [-1, 433, 16, 16]               0
     SkipConnect-118          [-1, 433, 16, 16]               0
          Conv2d-119          [-1, 237, 18, 18]         923,826
     BatchNorm2d-120          [-1, 237, 18, 18]             474
            ReLU-121          [-1, 237, 18, 18]               0
     SkipConnect-122          [-1, 237, 18, 18]               0
       MaxPool2d-123          [-1, 237, 10, 10]               0
          Conv2d-124           [-1, 97, 12, 12]         206,998
     BatchNorm2d-125           [-1, 97, 12, 12]             194
            ReLU-126           [-1, 97, 12, 12]               0
     SkipConnect-127           [-1, 97, 12, 12]               0
          Conv2d-128          [-1, 415, 14, 14]         362,710
     BatchNorm2d-129          [-1, 415, 14, 14]             830
            ReLU-130          [-1, 415, 14, 14]               0
     SkipConnect-131          [-1, 415, 14, 14]               0
       MaxPool2d-132            [-1, 415, 8, 8]               0
       MaxPool2d-133            [-1, 415, 5, 5]               0
       AvgPool2d-134            [-1, 415, 3, 3]               0
================================================================
Total params: 13,176,093
Trainable params: 13,176,093
Non-trainable params: 0
----------------------------------------------------------------
Input size (MB): 0.01
Forward/backward pass size (MB): 62.60
Params size (MB): 50.26
Estimated Total Size (MB): 112.87
----------------------------------------------------------------
Epoch:  1
…
Epoch: 3 of 10	Acc: 21.875	Loss: 147.57
Epoch:  4
Epoch: 4 of 10	Acc: 21.875	Loss: 147.45
Epoch:  5
Epoch: 5 of 10	Acc: 37.5	Loss: 147.41
Epoch:  6
Epoch: 6 of 10	Acc: 25.0	Loss: 147.52
Epoch:  7
Epoch: 7 of 10	Acc: 25.0	Loss: 147.47
Epoch:  8
Epoch: 8 of 10	Acc: 25.0	Loss: 147.44
Epoch:  9
Epoch: 9 of 10	Acc: 25.0	Loss: 147.41
Epoch:  10
Epoch: 10 of 10	Acc: 25.0	Loss: 147.39
----------------------------------------------------------------
        Layer (type)               Output Shape         Param #
================================================================
            Conv2d-1           [-1, 16, 34, 34]             448
       BatchNorm2d-2           [-1, 16, 34, 34]              32
              ReLU-3           [-1, 16, 34, 34]               0
       SkipConnect-4           [-1, 16, 34, 34]               0
         AvgPool2d-5           [-1, 16, 18, 18]               0
         MaxPool2d-6           [-1, 16, 10, 10]               0
            Conv2d-7          [-1, 512, 12, 12]          74,240
       BatchNorm2d-8          [-1, 512, 12, 12]           1,024
              ReLU-9          [-1, 512, 12, 12]               0
      SkipConnect-10          [-1, 512, 12, 12]               0
           Conv2d-11          [-1, 337, 14, 14]       1,553,233
      BatchNorm2d-12          [-1, 337, 14, 14]             674
             ReLU-13          [-1, 337, 14, 14]               0
      SkipConnect-14          [-1, 337, 14, 14]               0
           Conv2d-15          [-1, 109, 16, 16]         330,706
      BatchNorm2d-16          [-1, 109, 16, 16]             218
             ReLU-17          [-1, 109, 16, 16]               0
      SkipConnect-18          [-1, 109, 16, 16]               0
           Conv2d-19           [-1, 99, 18, 18]          97,218
      BatchNorm2d-20           [-1, 99, 18, 18]             198
             ReLU-21           [-1, 99, 18, 18]               0
      SkipConnect-22           [-1, 99, 18, 18]               0
        AvgPool2d-23           [-1, 99, 10, 10]               0
           Conv2d-24          [-1, 216, 12, 12]         192,672
      BatchNorm2d-25          [-1, 216, 12, 12]             432
             ReLU-26          [-1, 216, 12, 12]               0
      SkipConnect-27          [-1, 216, 12, 12]               0
           Conv2d-28          [-1, 387, 14, 14]         752,715
      BatchNorm2d-29          [-1, 387, 14, 14]             774
             ReLU-30          [-1, 387, 14, 14]               0
      SkipConnect-31          [-1, 387, 14, 14]               0
           Conv2d-32          [-1, 155, 16, 16]         540,020
      BatchNorm2d-33          [-1, 155, 16, 16]             310
             ReLU-34          [-1, 155, 16, 16]               0
      SkipConnect-35          [-1, 155, 16, 16]               0
           Conv2d-36           [-1, 90, 18, 18]         125,640
      BatchNorm2d-37           [-1, 90, 18, 18]             180
             ReLU-38           [-1, 90, 18, 18]               0
      SkipConnect-39           [-1, 90, 18, 18]               0
           Conv2d-40          [-1, 241, 20, 20]         195,451
      BatchNorm2d-41          [-1, 241, 20, 20]             482
             ReLU-42          [-1, 241, 20, 20]               0
      SkipConnect-43          [-1, 241, 20, 20]               0
           Conv2d-44          [-1, 474, 22, 22]       1,028,580
      BatchNorm2d-45          [-1, 474, 22, 22]             948
             ReLU-46          [-1, 474, 22, 22]               0
      SkipConnect-47          [-1, 474, 22, 22]               0
           Conv2d-48          [-1, 324, 24, 24]       1,382,508
      BatchNorm2d-49          [-1, 324, 24, 24]             648
             ReLU-50          [-1, 324, 24, 24]               0
      SkipConnect-51          [-1, 324, 24, 24]               0
           Conv2d-52          [-1, 257, 26, 26]         749,669
      BatchNorm2d-53          [-1, 257, 26, 26]             514
             ReLU-54          [-1, 257, 26, 26]               0
      SkipConnect-55          [-1, 257, 26, 26]               0
           Conv2d-56          [-1, 203, 28, 28]         469,742
      BatchNorm2d-57          [-1, 203, 28, 28]             406
             ReLU-58          [-1, 203, 28, 28]               0
      SkipConnect-59          [-1, 203, 28, 28]               0
           Conv2d-60          [-1, 234, 30, 30]         427,752
      BatchNorm2d-61          [-1, 234, 30, 30]             468
             ReLU-62          [-1, 234, 30, 30]               0
      SkipConnect-63          [-1, 234, 30, 30]               0
        MaxPool2d-64          [-1, 234, 16, 16]               0
           Conv2d-65           [-1, 14, 18, 18]          29,498
      BatchNorm2d-66           [-1, 14, 18, 18]              28
             ReLU-67           [-1, 14, 18, 18]               0
      SkipConnect-68           [-1, 14, 18, 18]               0
           Conv2d-69           [-1, 49, 20, 20]           6,223
      BatchNorm2d-70           [-1, 49, 20, 20]              98
             ReLU-71           [-1, 49, 20, 20]               0
      SkipConnect-72           [-1, 49, 20, 20]               0
        MaxPool2d-73           [-1, 49, 11, 11]               0
           Conv2d-74          [-1, 151, 13, 13]          66,742
      BatchNorm2d-75          [-1, 151, 13, 13]             302
             ReLU-76          [-1, 151, 13, 13]               0
      SkipConnect-77          [-1, 151, 13, 13]               0
           Conv2d-78          [-1, 127, 15, 15]         172,720
      BatchNorm2d-79          [-1, 127, 15, 15]             254
             ReLU-80          [-1, 127, 15, 15]               0
      SkipConnect-81          [-1, 127, 15, 15]               0
           Conv2d-82          [-1, 388, 17, 17]         443,872
      BatchNorm2d-83          [-1, 388, 17, 17]             776
             ReLU-84          [-1, 388, 17, 17]               0
      SkipConnect-85          [-1, 388, 17, 17]               0
           Conv2d-86           [-1, 20, 19, 19]          69,860
      BatchNorm2d-87           [-1, 20, 19, 19]              40
             ReLU-88           [-1, 20, 19, 19]               0
      SkipConnect-89           [-1, 20, 19, 19]               0
        AvgPool2d-90           [-1, 20, 10, 10]               0
           Conv2d-91          [-1, 277, 12, 12]          50,137
      BatchNorm2d-92          [-1, 277, 12, 12]             554
             ReLU-93          [-1, 277, 12, 12]               0
      SkipConnect-94          [-1, 277, 12, 12]               0
           Conv2d-95           [-1, 29, 14, 14]          72,326
      BatchNorm2d-96           [-1, 29, 14, 14]              58
             ReLU-97           [-1, 29, 14, 14]               0
      SkipConnect-98           [-1, 29, 14, 14]               0
           Conv2d-99          [-1, 280, 16, 16]          73,360
     BatchNorm2d-100          [-1, 280, 16, 16]             560
            ReLU-101          [-1, 280, 16, 16]               0
     SkipConnect-102          [-1, 280, 16, 16]               0
          Conv2d-103          [-1, 380, 18, 18]         957,980
     BatchNorm2d-104          [-1, 380, 18, 18]             760
            ReLU-105          [-1, 380, 18, 18]               0
     SkipConnect-106          [-1, 380, 18, 18]               0
          Conv2d-107          [-1, 299, 20, 20]       1,022,879
     BatchNorm2d-108          [-1, 299, 20, 20]             598
            ReLU-109          [-1, 299, 20, 20]               0
     SkipConnect-110          [-1, 299, 20, 20]               0
          Conv2d-111           [-1, 84, 22, 22]         226,128
     BatchNorm2d-112           [-1, 84, 22, 22]             168
            ReLU-113           [-1, 84, 22, 22]               0
     SkipConnect-114           [-1, 84, 22, 22]               0
       MaxPool2d-115           [-1, 84, 12, 12]               0
       MaxPool2d-116             [-1, 84, 7, 7]               0
       AvgPool2d-117             [-1, 84, 4, 4]               0
       MaxPool2d-118             [-1, 84, 3, 3]               0
          Conv2d-119            [-1, 314, 5, 5]         237,698
     BatchNorm2d-120            [-1, 314, 5, 5]             628
            ReLU-121            [-1, 314, 5, 5]               0
     SkipConnect-122            [-1, 314, 5, 5]               0
          Conv2d-123            [-1, 370, 7, 7]       1,045,990
     BatchNorm2d-124            [-1, 370, 7, 7]             740
            ReLU-125            [-1, 370, 7, 7]               0
     SkipConnect-126            [-1, 370, 7, 7]               0
       AvgPool2d-127            [-1, 370, 4, 4]               0
       MaxPool2d-128            [-1, 370, 3, 3]               0
       AvgPool2d-129            [-1, 370, 2, 2]               0
       MaxPool2d-130            [-1, 370, 2, 2]               0
          Conv2d-131             [-1, 65, 4, 4]         216,515
     BatchNorm2d-132             [-1, 65, 4, 4]             130
            ReLU-133             [-1, 65, 4, 4]               0
     SkipConnect-134             [-1, 65, 4, 4]               0
          Conv2d-135            [-1, 451, 6, 6]         264,286
     BatchNorm2d-136            [-1, 451, 6, 6]             902
            ReLU-137            [-1, 451, 6, 6]               0
     SkipConnect-138            [-1, 451, 6, 6]               0
          Conv2d-139            [-1, 271, 8, 8]       1,100,260
     BatchNorm2d-140            [-1, 271, 8, 8]             542
            ReLU-141            [-1, 271, 8, 8]               0
     SkipConnect-142            [-1, 271, 8, 8]               0
          Conv2d-143          [-1, 447, 10, 10]       1,090,680
     BatchNorm2d-144          [-1, 447, 10, 10]             894
            ReLU-145          [-1, 447, 10, 10]               0
     SkipConnect-146          [-1, 447, 10, 10]               0
          Conv2d-147          [-1, 340, 12, 12]       1,368,160
     BatchNorm2d-148          [-1, 340, 12, 12]             680
            ReLU-149          [-1, 340, 12, 12]               0
     SkipConnect-150          [-1, 340, 12, 12]               0
          Conv2d-151          [-1, 281, 14, 14]         860,141
     BatchNorm2d-152          [-1, 281, 14, 14]             562
            ReLU-153          [-1, 281, 14, 14]               0
     SkipConnect-154          [-1, 281, 14, 14]               0
================================================================
Total params: 17,312,631
Trainable params: 17,312,631
Non-trainable params: 0
----------------------------------------------------------------
Input size (MB): 0.01
Forward/backward pass size (MB): 69.77
Params size (MB): 66.04
Estimated Total Size (MB): 135.83
----------------------------------------------------------------
Epoch:  1
…
